model_save/lenet_parameter.pkl (torch_old, 248423 bytes, 10 tensors)

conv1.weight f4 [6, 1, 5, 5]
0	0xbb827066	-0.003980684
1	0x3e89959f	0.26871964
2	0xbda8aa7f	-0.082356445
3	0xbdfd0ec5	-0.12356333
4	0x3cc5b3b5	0.024133543
5	0x3d9b7704	0.0759106
6	0x3eb2a723	0.3489314
7	0x3ea54db5	0.32285848
8	0x3e8b1443	0.27163896
9	0xbc10b1eb	-0.008831481
10	0x3ea15131	0.31507257
11	0x3f1259ab	0.5716807
12	0x3f26e257	0.6518912
13	0x3eff3f53	0.49853
14	0x3dc807b1	0.09767092
15	0x3ea19c97	0.3156478
16	0x3f332ec8	0.6999326
17	0x3efffe7e	0.4999885
18	0x3e98052f	0.29691455
19	0xbdf3c47e	-0.11902712
20	0x3e24fec7	0.16112815
21	0x3e9b8cc5	0.30380836
22	0x3ee14fc9	0.44006184
23	0x3eaff94b	0.34369883
24	0x3e971459	0.29507712
25	0xbe1db35d	-0.15400453
26	0x3cfb5f16	0.030684989
27	0x3dad2307	0.084539466
28	0x3e12b23a	0.143258
29	0x3db9bca5	0.09069184
30	0xbc563a4d	-0.013075423
31	0xbdab0931	-0.083513625
32	0x3e4c42c8	0.1994735
33	0x3d10c273	0.03534169
34	0x3cd21668	0.02564545
35	0x3e2271ac	0.15863675
36	0x3e8c0b2e	0.2735228
37	0x3ea9e53f	0.33182713
38	0xbe0aeaa6	-0.13566074
39	0xbe229b63	-0.15879588
40	0x3ce4ed29	0.027945118
41	0x3f04c2d5	0.5185979
42	0x3e71fc4e	0.23631403
43	0x3d8dcddf	0.069240324
44	0x3e011daf	0.1260898
45	0x3e8cf18f	0.27528045
46	0x3e644d0a	0.22295013
47	0x3e91b2b0	0.2845664
48	0xbdd577ad	-0.10423217
49	0xbe43fc9a	-0.19139329
50	0xbe7ae166	-0.24500045
51	0x3cb8031b	0.022462418
52	0xbeb660e2	-0.3562079
53	0xbec0c564	-0.37650597
54	0xbe46e41c	-0.19422954
55	0x3dc51635	0.09623376
56	0xbe99d935	-0.30048528
57	0xbe8fe47f	-0.28104016
58	0xbe0dfda1	-0.13866283
59	0xbc74c578	-0.014939658
60	0x3e9c5e04	0.30540478
61	0x3e319a82	0.17344096
62	0x3d8aa8dc	0.067704886
63	0x3ebd8953	0.37018833
64	0x3e926a65	0.28596798
65	0x3d66832d	0.056277443
66	0x3e05a269	0.13050236
67	0x3eeaaa4b	0.45833048
68	0x3e2474d6	0.16060194
69	0x3e1c5887	0.15268146
70	0x3ba619ab	0.005068978
71	0x3e9dce6b	0.30821547
72	0x3e1982e5	0.14991339
73	0xbb651026	-0.0034952252
74	0xbe452702	-0.19253162
75	0xbe768850	-0.24075437
76	0xbe4f491c	-0.20242733
77	0x3dcdf2a0	0.10056043
78	0x3e183df0	0.14867377
79	0x3ddbe5b6	0.10737173
80	0xbde2b1df	-0.110690825
81	0xbd8abf0e	-0.06774722
82	0xbced3cc5	-0.028959641
83	0x3e9814ca	0.2970336
84	0x3dacef8b	0.08444127
85	0x3d1260d7	0.035736885
86	0xbe5ae8a6	-0.21377811
87	0x3e0501c5	0.12988956
88	0x3e0f8f30	0.14019465
89	0xbd0b9143	-0.03407408
90	0xbe74f8e3	-0.23923068
91	0x3e1cdeba	0.15319338
92	0x3e11f6a3	0.1425424
93	0x3e9a6d36	0.30161446
94	0x3d2ee4e8	0.04269877
95	0xbdd63b2d	-0.10460506
96	0xbcb5b758	-0.022182152
97	0x3e0913f8	0.13386524
98	0x3e0bf0cd	0.13666077
99	0xbe2128e9	-0.15738262
100	0x3e27a0b1	0.16369893
101	0x3c35d9e2	0.011099311
102	0xbe2c2b87	-0.1681348
103	0xbe5ebdf8	-0.21752155
104	0xbe10cb25	-0.14139993
105	0xbd95acf7	-0.07308381
106	0x3de84a78	0.11342329
107	0x3e547a05	0.20749672
108	0x3e5b52b9	0.21418275
109	0xbd681e93	-0.056669783
110	0x3e3be268	0.18348086
111	0x3d305f88	0.043059856
112	0x3ddf6bc0	0.109092236
113	0x3e96dbf4	0.29464686
114	0x3e8f25a7	0.27958414
115	0xbdfd0e10	-0.12356198
116	0xbbefa42a	-0.007313271
117	0xbe63486e	-0.22195598
118	0x3cf8d5c3	0.030375367
119	0x3da323da	0.079658225
120	0xbd600473	-0.054691743
121	0xbe01c502	-0.12672809
122	0xbd7ad5cf	-0.06123906
123	0xbd1b847f	-0.037968155
124	0xbe204a15	-0.1565326
125	0xbcec0368	-0.028810218
126	0x3c9b58da	0.018963266
127	0xbe2cc90e	-0.16873571
128	0xbe350af3	-0.17679958
129	0xbe60a70a	-0.2193872
130	0x3b9c4159	0.0047685322
131	0xbe637760	-0.22213507
132	0xbe521730	-0.20516658
133	0xbce6111f	-0.028084336
134	0x3d81c927	0.06337195
135	0xbdae1e8f	-0.08501922
136	0xbe8937d8	-0.26800418
137	0x3e17f0db	0.14837973
138	0xbda58bd4	-0.08083311
139	0x3e2073b2	0.15669134
140	0xbe623505	-0.22090538
141	0xbcd7506f	-0.02628347
142	0x3df503e5	0.119636334
143	0x3e6981cd	0.22803421
144	0xbd9bf5ed	-0.07615266
145	0xbe46b25d	-0.19403978
146	0x3dd07385	0.101782836
147	0x3e048eff	0.12945174
148	0xbd8f620c	-0.07001123
149	0xbd99c099	-0.07507438

conv1.bias f4 [6]
0	0x3ed9505f	0.4244413
1	0x3e8df665	0.27727047
2	0x3e74ed54	0.23918658
3	0x3c1faa20	0.009745151
4	0x3e00f8c8	0.12594903
5	0x3e38ef7c	0.18060106

conv2.weight f4 [16, 6, 5, 5]
0	0x3e1614bd	0.14656349
1	0x3e45e064	0.1932388
2	0x3e0a2136	0.13489231
3	0x3c7e35fa	0.015515799
4	0xbc935026	-0.017982554
5	0x3d6d49b1	0.057931606
6	0x3cb88790	0.022525579
7	0x3c6c8cc1	0.014437855
8	0xbe0205d9	-0.12697543
9	0xbd6d0542	-0.057866342
10	0xbd9cd4a1	-0.07657743
11	0xbe385d7b	-0.1800441
12	0xbe810ebd	-0.25206557
13	0xbe023ff9	-0.12719716
14	0x3d93488f	0.07191574
15	0xbdef3ab7	-0.11681121
16	0xbd9ae44d	-0.07563076
17	0xbdd8d98a	-0.10588367
18	0xbd796f8c	-0.060897395
19	0x3de0170a	0.10941894
20	0x3d937474	0.07199946
21	0x3d88a0eb	0.06671318
22	0xbd051f89	-0.032500777
23	0xbce41d47	-0.027845992
24	0x3dffc155	0.12488047
25	0x3dba721e	0.091037974
26	0xbc7fcd30	-0.015612885
27	0x3e02d593	0.12776785
28	0x3d7b3e25	0.061338563
29	0x3be52439	0.0069928435
30	0xbd590a5a	-0.052988388
31	0x3d90a2ea	0.070623234
32	0x3cc6e8da	0.024280954
33	0xbdb07521	-0.086160906
34	0x3ca67775	0.020320633
35	0x3d10d76f	0.035361703
36	0xbd082f43	-0.033248197
37	0xbce74eea	-0.028235871
38	0xbe08b845	-0.13351543
39	0xbd470bba	-0.048595168
40	0xbd33bc7e	-0.043880932
41	0xbc10b3a2	-0.00883189
42	0xbca15a51	-0.019696387
43	0x3d820538	0.06348652
44	0x3da35067	0.0797432
45	0xbd67e53f	-0.05661511
46	0x3d975a9a	0.07390328
47	0xbcbf6bd1	-0.02336684
48	0xbc3611e4	-0.011112664
49	0x3d357810	0.044303954
50	0x3de30dbe	0.110866055
51	0xbbd2d748	-0.006434355
52	0x3d9ef959	0.07762403
53	0xbc11b63c	-0.008893546
54	0x3d6695bb	0.056295138
55	0x3d14715f	0.03624093
56	0x3c8d9daf	0.017287103
57	0x3d7ac055	0.06121858
58	0xbdff31ab	-0.12460645
59	0xbd27f744	-0.041007295
60	0xbdb51674	-0.08842173
61	0xbcfdd252	-0.030984078
62	0xbdc986bc	-0.09840152
63	0xbbe92c65	-0.007115888
64	0x3da59746	0.08085494
65	0x3d7b802a	0.061401524
66	0x3dc83965	0.09776572
67	0xbd663588	-0.056203395
68	0x3ce50f89	0.02796151
69	0x3cd0def9	0.025496947
70	0xbc17171b	-0.009221817
71	0x3d7ea471	0.062168542
72	0x3d07e6c0	0.033179045
73	0xbb8bfe7e	-0.004272281
74	0xbdda67a0	-0.10664296
75	0xbba9638d	-0.005169338
76	0xbc431289	-0.011906275
77	0xbbd78bd9	-0.0065779504
78	0x3d4b411b	0.049622636
79	0x3d4baad6	0.04972347
80	0x3d59dc87	0.053188827
81	0xbd344309	-0.044009242
82	0x3d5cbdce	0.05389195
83	0x3b25c28a	0.0025292956
84	0x3c1467b0	0.009057924
85	0xbd0cb05d	-0.03434788
86	0x3cfcb5a1	0.030848326
87	0x3be69835	0.0070371875
88	0xbd67a021	-0.056549195
89	0x3c92cddf	0.017920433
90	0xbdb65025	-0.08902005
91	0x3c837808	0.016048446
92	0xbd30536c	-0.043048307
93	0xbc84ff07	-0.016234888
94	0x3ce06a02	0.027394298
95	0xbda794db	-0.08182689
96	0xbd826a3c	-0.06367919
97	0xbd5b1ec9	-0.053496156
98	0xbc075845	-0.008260791
99	0x3cf391bb	0.029732576
100	0x3da7b102	0.081880584
101	0x3da46790	0.080275655
102	0xbd026ef2	-0.031844087
103	0x3c80375d	0.0156514
104	0xbd4e9114	-0.050431326
105	0x3d341c9d	0.0439726
106	0x3d54578a	0.051841296
107	0x3d6f1b94	0.05837591
108	0xbd7b2ade	-0.06132018
109	0x3d62c932	0.055367656
110	0xbd782c50	-0.060589135
111	0xbc615846	-0.013753956
112	0x3d1eefda	0.03880296
113	0xbdcd680d	-0.10029612
114	0x3d8426fa	0.06452747
115	0xbdb26dfe	-0.087123856
116	0x3ba6d1d4	0.0050909314
117	0x3d595dfc	0.053068146
118	0xbd1d9ffe	-0.03848266
119	0x3cb9773c	0.022639863
120	0xbd98b135	-0.074556746
121	0x3d1f4bfc	0.038890824
122	0xbd6a9406	-0.057270072
123	0xbd714481	-0.05890322
124	0x3c33ba7c	0.010969754
125	0x3d8b1b41	0.06792308
126	0xbcc8697a	-0.024464358
127	0x3cec0f9d	0.028816039
128	0xbc0741a5	-0.008255397
129	0xbc33e910	-0.010980859
130	0xbd62f8d3	-0.05541308
131	0x3d1ba6d6	0.038000904
132	0x3d279dde	0.04092204
133	0x3dabb3e9	0.083839245
134	0x3b8b1414	0.004244337
135	0x3c1769c6	0.009241527
136	0x3ccda8cf	0.025104908
137	0xbc840a19	-0.016118096
138	0x3d824870	0.063614726
139	0x3c3d7a2d	0.0115647735
140	0x3d886dc3	0.066615604
141	0x3d2c9de6	0.04214277
142	0x3db1a3d9	0.086738296
143	0xbd2368b7	-0.039894786
144	0x3da4301e	0.0801699
145	0xbbf003ee	-0.007324687
146	0x3dc3f838	0.09568828
147	0xbd5152ba	-0.051104285
148	0x3d7eb059	0.062179897
149	0x3d02dca8	0.031948715
150	0x3ba0d0d6	0.0049077077
151	0xbb9c2c8b	-0.004766052
152	0xbddcb1a9	-0.107760735
153	0xbe00fee3	-0.12597232
154	0x3cc394d2	0.023874674
155	0x3da76d6d	0.08175168
156	0x3e069828	0.1314398
157	0x3ca18c38	0.019720182
158	0xbdd8a5ce	-0.105785
159	0xbe3a2de9	-0.18181576
160	0xbdb104ee	-0.086435184
161	0x3dcfdae1	0.1014917
162	0x3d9b0f0f	0.075712316
163	0x3db2cf5d	0.08730958
164	0xbcbda1eb	-0.023148498
165	0xbd34a406	-0.044101737
166	0xbd171156	-0.036881767
167	0x3dd997e7	0.10624676
168	0x3e18e8ec	0.14932603
169	0x3da67ce6	0.08129291
170	0xbc8a4ac3	-0.016881352
171	0x3cb123b4	0.02162347
172	0xbcf78d8d	-0.030218864
173	0x3c8e3cf5	0.017363051
174	0x3c24192c	0.010015767
175	0x3d2c8612	0.042120047
176	0xbd723926	-0.059136532
177	0xbb3a4639	-0.0028423204
178	0xbd797d40	-0.060910463
179	0xbd953d08	-0.072870314
180	0xbd7fb52f	-0.06242865
181	0xbd0608c9	-0.032723222
182	0x3d021c29	0.031765137
183	0x3cd634d7	0.026148243
184	0xbc63c567	-0.013902045
185	0xbd62eeae	-0.055403404
186	0xbdbd622f	-0.09247243
187	0xbcc3cb95	-0.023900786
188	0xbd45ae6e	-0.048262052
189	0xbdc256f0	-0.09489238
190	0xbbc6f7f6	-0.0060720397
191	0x3dbd4e09	0.092434
192	0xbd4bda05	-0.049768467
193	0x386f7fdf	5.710113e-05
194	0xbc10a2e8	-0.008827902
195	0x3dd7cdc1	0.10537291
196	0x3dcc89f0	0.09987247
197	0x3dc1ef14	0.09469429
198	0x3d95bd54	0.07311502
199	0xbafcfbe0	-0.0019301139
200	0x3d2c617f	0.042085167
201	0x3cd975b0	0.026545376
202	0x3d7d8c3c	0.061901316
203	0x3caf4692	0.021395955
204	0x3d391dc0	0.045194387
205	0x3dfa2ce1	0.12215591
206	0x3d5c4dfc	0.05378531
207	0xbb9188ea	-0.0044413703
208	0x3c7cad35	0.015422155
209	0x3d3110ea	0.04322902
210	0x3ce72404	0.028215416
211	0x3b2affb2	0.0026092348
212	0x3bc2cb7f	0.005944669
213	0xbd0fdec3	-0.03512455
214	0xbdb8a69a	-0.09016152
215	0x3dced44d	0.10099087
216	0xb8b3bc85	-8.5704996e-05
217	0xbd837d9a	-0.06420441
218	0x3c322451	0.010872916
219	0xbd0559ac	-0.03255622
220	0x3dcf6c83	0.10128119
221	0xbbf8af69	-0.00758927
222	0xbd982715	-0.07429329
223	0x3babcc39	0.005242851
224	0xbd8192f3	-0.063268565
225	0xbd9d5d1c	-0.07683775
226	0x38d3c8f3	0.00010098694
227	0xbd08a260	-0.033357978
228	0xbd33005b	-0.04370151
229	0xbdb0d085	-0.08633522
230	0xbcd8b5b0	-0.026453823
231	0xbc91b7ba	-0.017787803
232	0xbd1275f9	-0.03575704
233	0xbcfe7cbd	-0.03106534
234	0x3d849e8a	0.064755514
235	0x3cbf5749	0.02335705
236	0xbdbd795c	-0.09251663
237	0xbd0b7d5e	-0.034055106
238	0x3d24d60b	0.04024319
239	0xbc64faae	-0.013975782
240	0xbd55c64a	-0.052191056
241	0xbd31f581	-0.04344702
242	0x3d261503	0.040547382
243	0x3b39e8db	0.0028367552
244	0xba4f2c11	-0.000790299
245	0x3cc0f5c5	0.023554692
246	0x3d71df22	0.059050687
247	0x3d95916d	0.073031284
248	0x3d683936	0.056695186
249	0xbd84c33e	-0.06482552
250	0xbc8281a3	-0.015930956
251	0x3d637b75	0.05553766
252	0x3ca40294	0.02002076
253	0x3b563b39	0.0032689108
254	0x3d7982b0	0.06091565
255	0xbccda54b	-0.025103232

conv2.bias f4 [16]
0	0x3d86ad68	0.06576043
1	0xbd8632fe	-0.06552695
2	0xbcfe9dfd	-0.031081194
3	0xbd642ab5	-0.05570479
4	0xbd032272	-0.03201527
5	0x3d14b6ce	0.03630715
6	0x3da4cc06	0.08046727
7	0xbc9fd67a	-0.01951145
8	0x3d88a629	0.066723175
9	0x3d98990d	0.07451067
10	0x3cb72225	0.022355149
11	0xbc271f8f	-0.010200395
12	0x3d5995b6	0.05312129
13	0x3d6ddd5d	0.058072437
14	0xbd458479	-0.04822204
15	0x3d1a73ac	0.03770797

conv3.weight f4 [120, 16, 5, 5]
0	0xbd0f2a25	-0.0349523
1	0x3c82cea2	0.01596767
2	0x3c7aa13e	0.015297232
3	0xbc8209b7	-0.015873773
4	0x3d2ad1d0	0.041704
5	0xbcba94c7	-0.02277602
6	0x3d200ca9	0.039074574
7	0xbd3a8fdb	-0.045547348
8	0xbc2727ee	-0.010202391
9	0x3cf0f03d	0.02941143
10	0x3c90f154	0.0176932
11	0x3c55854a	0.013032267
12	0x3b41f68e	0.002959642
13	0x3cd82ba8	0.026388004
14	0x3c1152e4	0.00886986
15	0xbc971e3d	-0.018447036
16	0xbd29d7a8	-0.04146543
17	0xbd1599b9	-0.036523554
18	0xbb496746	-0.0030731722
19	0xbcd0cc95	-0.025488177
20	0xbac643d9	-0.0015126421
21	0x3d279c44	0.04092051
22	0x3d2c44b5	0.04205771
23	0xbbe2b262	-0.0069182375
24	0x3c84500d	0.016151452
25	0xbcf467e7	-0.0298347
26	0xbc71345d	-0.014721957
27	0xbd27f5ad	-0.04100578
28	0xbc162d64	-0.009166095
29	0xbca8de02	-0.020613674
30	0x3cc853b7	0.02445398
31	0x3c11acc9	0.008891293
32	0x3b0c3dc6	0.0021399125
33	0xbba14c12	-0.0049223984
34	0xbd2e2ffd	-0.042526234
35	0x3cfcadaf	0.030844538
36	0xbd545700	-0.051840782
37	0x3cf3579b	0.02970486
38	0xbd40eb8f	-0.047099646
39	0x3aeaecc9	0.0017923351
40	0x3ce7c3ba	0.028291572
41	0x3d2337d7	0.039848175
42	0xbcb690d2	-0.022285853
43	0x3d98c0aa	0.07458623
44	0x3d21bcd5	0.039486725
45	0x3c104635	0.008805801
46	0xbc560a05	-0.013063912
47	0x3d10c035	0.035339553
48	0x3c8fc1d2	0.017548475
49	0x3d42da2e	0.047571354
50	0xbc8fa603	-0.017535215
51	0xbcc62c4c	-0.024191044
52	0xbcd5d7cf	-0.026103882
53	0xbcc79bc9	-0.024366276
54	0xbd114c43	-0.03547312
55	0x3c5818e2	0.013189526
56	0xbd648e16	-0.055799566
57	0xbcb22e03	-0.021750456
58	0xbd2b495a	-0.041818
59	0x3bc47315	0.005995164
60	0x3bf60be4	0.0075087417
61	0x3d3e45a6	0.04645314
62	0x3d35d5f2	0.044393487
63	0x3d169379	0.036761735
64	0xbcd5d64c	-0.026103161
65	0x3c23b6c0	0.009992301
66	0x3d15a668	0.03653565
67	0xbd1ac20a	-0.037782706
68	0xbc783483	-0.0151492385
69	0xbc935682	-0.017985586
70	0x3c89f083	0.016838318
71	0x3ce24200	0.027619362
72	0x3bad8bb5	0.0052961954
73	0xbc0fe73a	-0.008783156
74	0xbc9b749b	-0.0189765
75	0xbd6473f0	-0.05577463
76	0xbd80b2b3	-0.06284084
77	0x3b78fe22	0.0037993272
78	0xbd97298d	-0.07380972
79	0xbd94053e	-0.07227562
80	0x3d29dfaa	0.04147307
81	0x3d448a82	0.047983654
82	0xbc5e168a	-0.013555178
83	0xbcfa89b4	-0.03058324
84	0xbd88558d	-0.066569425
85	0xbc4bba89	-0.01243461
86	0xbbdab847	-0.0066747996
87	0x3c64ad7f	0.01395738
88	0x3c656129	0.014000216
89	0xbd41af27	-0.04728618
90	0x3cce0853	0.025150454
91	0xbc876a8a	-0.016530294
92	0xbb040114	-0.0020142244
93	0x3cafcb0b	0.021459123
94	0x3d4af272	0.04954762
95	0x3b81ce2c	0.003961345
96	0xbc696209	-0.014244565
97	0x3cbace21	0.022803368
98	0x3cb65d5e	0.022261318
99	0x3c3582f1	0.011078582
100	0x3d03d4c2	0.032185324
101	0x3d007505	0.0313616
102	0x3ce2fede	0.02770942
103	0xbc1bd87a	-0.009512061
104	0x3ce96930	0.02849254
105	0xbce7d730	-0.028300852
106	0x3cfac060	0.03060931
107	0xbbcf821d	-0.0063326494
108	0xbce94a60	-0.028477848
109	0xbc45443a	-0.012040192
110	0xbd485a44	-0.04891421
111	0x3ccc933b	0.024972549
112	0xbc034d91	-0.008014099
113	0x3d1bef80	0.038070202
114	0xbd0bc8d4	-0.03412707
115	0x3d36e4d0	0.044651806
116	0x3d25f0c6	0.040512823
117	0xbc8637c2	-0.01638401
118	0x3cc00d1a	0.023443747
119	0xbcd410cb	-0.025886914
120	0x3a684309	0.00088600867
121	0x3d5581a6	0.052125596
122	0xbc18d089	-0.009327062
123	0x3d85e3d7	0.065375976
124	0x3d46309a	0.048386194
125	0xbd6b4769	-0.05744115
126	0xbd208cff	-0.039196964
127	0xbc8bd33c	-0.017068498
128	0x3cb212dc	0.021737508
129	0x3d1dab50	0.038493454
130	0xbd0b362e	-0.033987217
131	0x3d55baf2	0.052180238
132	0xbb7e6d0d	-0.0038822324
133	0xbd008006	-0.031372093
134	0xbced23c8	-0.028947726
135	0xbd3be182	-0.045869358
136	0x3cba15cb	0.02271547
137	0x3d8c1ab0	0.06841028
138	0xbc90ea9f	-0.017690001
139	0xbcfe716e	-0.031059947
140	0xbcac83ec	-0.021058999
141	0x3ca33abe	0.019925471
142	0xbcd66f21	-0.026176037
143	0x3d4f2d6b	0.050580423
144	0x3d55c04b	0.052185338
145	0xbb9509b9	-0.004548278
146	0xb84ff4e2	-4.958071e-05
147	0xbc35b853	-0.01109131
148	0x3daa0d7d	0.08303354
149	0x3d3ad74c	0.04561548
150	0x3d077eda	0.03307996
151	0x3d36ba20	0.044611096
152	0x3cb4223f	0.021988986
153	0xbb83dfc4	-0.0040244777
154	0x3cc4ded8	0.024032041
155	0x3c9401fe	0.018067356
156	0xbc928eb7	-0.017890317
157	0xbd5cfec1	-0.05395389
158	0xbc7fb644	-0.01560742
159	0xbcce6874	-0.025196292
160	0x3c3bb00f	0.01145555
161	0x3c802af8	0.01564549
162	0xbbacfd0b	-0.0052791885
163	0xbb2864d1	-0.0025694857
164	0xbc23c356	-0.009995302
165	0xbd458504	-0.048222557
166	0x3d3c4902	0.045968063
167	0x3c13dad4	0.009024341
168	0xbc4c4713	-0.012468117
169	0xbd11ccf2	-0.03559584
170	0xbcf508f6	-0.0299115
171	0xbd06e9ac	-0.03293769
172	0xbd1be668	-0.03806153
173	0xbd283309	-0.041064296
174	0xbcd1f951	-0.025631579
175	0x3a6ee3f4	0.0009112947
176	0xbd035091	-0.032059256
177	0x3c03a0e5	0.008033966
178	0xbcccaf86	-0.02498604
179	0x3bbde37a	0.0057949396
180	0xbd65e33b	-0.056124907
181	0xbcfa5982	-0.030560259
182	0xbd1dad4c	-0.038495347
183	0x3c35a06a	0.011085609
184	0xbd362426	-0.044468068
185	0xbd1c4299	-0.03814945
186	0x3d42d7ad	0.047568966
187	0xbc939032	-0.018013094
188	0xbc82ab62	-0.015950862
189	0xbd5c7feb	-0.05383293
190	0xbcd81075	-0.026375035
191	0x3b16eb6b	0.0023028504
192	0x3d49f09d	0.049301732
193	0xbcb61a58	-0.022229359
194	0x3d27b1ce	0.040941052
195	0x3d5dcb5c	0.054149017
196	0xbcfb3768	-0.030666068
197	0x3c972bda	0.018453527
198	0x3d19f5f7	0.037588086
199	0x3d484f81	0.048903946
200	0x3a2e2862	0.0006643591
201	0xbc9dadc2	-0.019247893
202	0xbcf357e0	-0.029704988
203	0x3d2d6d90	0.042340815
204	0xbc92d8ee	-0.017925706
205	0x3c8606e0	0.0163607
206	0xbb498ed0	-0.003075529
207	0xbd229334	-0.039691165
208	0x3d025264	0.031816855
209	0x3cf35fe6	0.029708814
210	0x3d08db07	0.033412006
211	0x3c847344	0.016168244
212	0x3ba86cc8	0.005139921
213	0x3b9d4598	0.004799556
214	0x3d009c89	0.031399284
215	0xbcbb760b	-0.022883436
216	0xba9d657e	-0.0012008396
217	0x3cf23e19	0.029570626
218	0xbd20eca0	-0.039288163
219	0x3ce0b638	0.027430639
220	0xbd1b0ea6	-0.037855767
221	0x3cc1f48f	0.023676185
222	0x3cd09a7e	0.025464293
223	0xbd0c5f14	-0.03427036
224	0x3d3559ac	0.04427497
225	0xbbe10c34	-0.00686791
226	0x3c9da6fb	0.019244662
227	0xbc9f7aba	-0.0194677
228	0xbcaebc35	-0.021329978
229	0x3c803a2a	0.015652735
230	0x3d0a3426	0.03374114
231	0xbcbd2dc4	-0.023093112
232	0x3d01a31d	0.031649698
233	0xbd634201	-0.055482868
234	0xbcaed759	-0.02134292
235	0x3c9b29f3	0.018940901
236	0x3d2156d0	0.03938943
237	0x3b2ea536	0.0026648766
238	0xbcd98351	-0.026551874
239	0xbd3261bb	-0.043550234
240	0xbc9a5616	-0.018839877
241	0x3ce1d091	0.027565273
242	0x3d3f5929	0.04671589
243	0x3c403b38	0.011732869
244	0xbd3b0a8e	-0.045664363
245	0xbcf917f1	-0.030406924
246	0x3b912775	0.0044297525
247	0x3d1ed3e1	0.038776282
248	0xbc913e77	-0.01772998
249	0xbce6f7c9	-0.028194325
250	0xbd032ddf	-0.032026168
251	0x3c982878	0.018573985
252	0xbd879492	-0.066201344
253	0x3c139dc2	0.00900978
254	0x3ce73ef5	0.028228262
255	0x3baedf4f	0.005336679

conv3.bias f4 [120]
0	0x3ce357e2	0.027751867
1	0xbc9425df	-0.018084465
2	0x3cc0d21c	0.023537688
3	0x3b2867bb	0.0025696594
4	0x3c08f083	0.008358124
5	0xbcdb3e71	-0.026763173
6	0x3cfdb567	0.030970288
7	0x3d0c978b	0.03432421
8	0xbd361991	-0.044457976
9	0x3c155256	0.009113869
10	0x3c4a9688	0.012364991
11	0xbcaf9933	-0.021435356
12	0xbcedb8d7	-0.029018803
13	0xbd4475c9	-0.04796389
14	0x3ce618eb	0.028088054
15	0xba27482f	-0.00063813006
16	0xbaddda11	-0.0016925951
17	0x3c94f055	0.018181005
18	0xbd18bd5c	-0.037289962
19	0x3b9ce779	0.004788336
20	0xbd05a620	-0.032629132
21	0xbc3fcfe1	-0.011707277
22	0x3c7f551b	0.015584256
23	0x3d15a7c7	0.036536958
24	0x3c1334ac	0.008984726
25	0xbd16c4a6	-0.036808632
26	0xbd17d4bf	-0.037068125
27	0x3c882184	0.016617544
28	0x3c763e47	0.0150294965
29	0xbc843966	-0.016140651
30	0x3c15f342	0.009152235
31	0xbc939517	-0.018015428
32	0xbca9963a	-0.020701516
33	0xbc97e06f	-0.018539635
34	0xbc19a760	-0.009378284
35	0xbc8755e6	-0.016520452
36	0x3bf54e24	0.0074861217
37	0x3ce86011	0.02836612
38	0xbd119abf	-0.035547968
39	0x3c962353	0.01832739
40	0x3d482188	0.048860103
41	0x3ca20085	0.019775638
42	0xbd129019	-0.035781953
43	0xbb81512d	-0.0039464445
44	0xb731fb0e	-1.0608475e-05
45	0x3d1d138c	0.03834872
46	0xbbcaefe1	-0.0061931466
47	0xbc20362c	-0.009778541
48	0x3c375814	0.011190433
49	0xbc7819e4	-0.015142892
50	0xbd28cb5e	-0.04120957
51	0xbbf344ba	-0.0074239643
52	0xbcf4a3e8	-0.029863313
53	0xbcfb9ace	-0.030713465
54	0xbd0e701f	-0.034774896
55	0x3caf17ae	0.021373596
56	0x3d1e9f33	0.038726043
57	0xbd56c396	-0.05243262
58	0xbd28e1ab	-0.04123084
59	0xbd3c0b60	-0.045909286
60	0x3d1cd86d	0.038292337
61	0x3d3d841f	0.04626858
62	0x3d53a7d9	0.051673744
63	0xbc48b421	-0.012249977
64	0xbd11680b	-0.035499614
65	0x3c908501	0.017641546
66	0x3ba6f24c	0.005094802
67	0x3cc76ccf	0.024343876
68	0x3cea2856	0.028583687
69	0xbcffdf41	-0.031234385
70	0x3c81dc2a	0.015852053
71	0x3cc30147	0.02380432
72	0x3aab12a0	0.0013051815
73	0x3c3d9dae	0.011573238
74	0x3d2c2b53	0.042033505
75	0x3ceff1a1	0.029290022
76	0xbc1c653c	-0.0095456205
77	0xba01922e	-0.0004942742
78	0x39e718b0	0.00044078147
79	0x3b2d6675	0.0026458774
80	0xbc35377d	-0.011060593
81	0xbbccf326	-0.0062545715
82	0xbc6beadd	-0.0143992575
83	0x3cd0b1e8	0.025475457
84	0xbcfb8cb4	-0.03070674
85	0x3c9cac54	0.019125141
86	0xbd20a66f	-0.039221223
87	0x3d10a59c	0.035314187
88	0x3bb9c8c9	0.0056696874
89	0xbd1a087a	-0.03760574
90	0x3d0d6810	0.03452307
91	0xbc018361	-0.007904858
92	0xbcd82b69	-0.026387887
93	0xbd154f46	-0.036452554
94	0x3d35c5fc	0.044378266
95	0xbca2ff55	-0.019897142
96	0x3d261fd1	0.040557686
97	0xbd28a4da	-0.04117284
98	0xbd1b687e	-0.03794145
99	0xbcb42482	-0.021990065
100	0xbce70acc	-0.02820339
101	0x3b992009	0.0046730083
102	0x3b6f91b2	0.0036555347
103	0x3d2d124c	0.042253777
104	0x3cf311a4	0.029671498
105	0x3cd9d4e4	0.026590772
106	0xbd0b0442	-0.033939607
107	0x3c8810c9	0.016609566
108	0xbc9848fe	-0.018589493
109	0xbce403d3	-0.027833855
110	0x3ca70199	0.020386504
111	0x3d4dab4d	0.050212193
112	0xbcdf454a	-0.02725472
113	0xbc9e3f39	-0.019317256
114	0x3d1288e5	0.035775084
115	0x3cdb2d3a	0.026754964
116	0x3c04c038	0.008102469
117	0xbcfd3c84	-0.030912645
118	0xbcdde21b	-0.027085355
119	0xbc58b197	-0.0132259345

fc1.weight f4 [84, 120]
0	0x3dad7250	0.08469069
1	0x3d58889e	0.052864663
2	0xbc83357b	-0.016016712
3	0xbdbe43e4	-0.09290293
4	0xbd731163	-0.059342753
5	0xbdb11ad1	-0.08647693
6	0xbda44c5a	-0.080223754
7	0xbcf98c2b	-0.030462345
8	0xbaa7898a	-0.0012782079
9	0x3d568e45	0.052381773
10	0xbdbe35d1	-0.092876084
11	0x3aef8e86	0.0018276728
12	0x3dd7bf8a	0.1053458
13	0x3b5d663f	0.0033782867
14	0x3d907066	0.07052688
15	0xbd3022a6	-0.043001793
16	0xbdb2a120	-0.087221384
17	0x3db530e0	0.08847213
18	0x3ba3d5a6	0.004999834
19	0xbc94275d	-0.018085176
20	0x3d9b0637	0.07569545
21	0xbc0756dc	-0.008260455
22	0x3c97c974	0.018528678
23	0xbd589df9	-0.05288503
24	0x3d964c25	0.07338742
25	0x3d99891c	0.07496855
26	0xbd69bb5c	-0.057063445
27	0x3c2db901	0.01060319
28	0xbd323e12	-0.043516226
29	0xbc822cd6	-0.01589052
30	0xbc98c1a6	-0.018647026
31	0x3dc084cc	0.09400329
32	0x3d2468b1	0.040138904
33	0x3d072b4a	0.033000268
34	0x3dc8d469	0.09806139
35	0x3cc49623	0.023997372
36	0x3d00f358	0.03148207
37	0xbd9ea39d	-0.077460505
38	0xbd84da2c	-0.064869255
39	0xbdade427	-0.08490782
40	0x3b28b9ca	0.0025745505
41	0x3c63a38b	0.013893972
42	0xbc14bc28	-0.009078063
43	0xbcc3703e	-0.023857232
44	0xbc72652f	-0.014794632
45	0xbd1cf724	-0.03832163
46	0xbd16f5a3	-0.03685535
47	0x3b822a4a	0.0039723264
48	0xbd98d064	-0.07461622
49	0x3cb0a37f	0.021562336
50	0xbd77a865	-0.060463328
51	0xb9b9b603	-0.0003542156
52	0xbdf0c1eb	-0.11755737
53	0x3b8e17cd	0.0043363334
54	0xbdcb5a40	-0.09929323
55	0x3d2c3ef0	0.04205221
56	0x3cb77759	0.022395777
57	0x3d8d84f3	0.06910124
58	0xbb99c73a	-0.004692939
59	0xbd65859c	-0.056035623
60	0x3d247b76	0.040156804
61	0x3d06a3ad	0.032870937
62	0xbdcb7ab3	-0.099355124
63	0xbc6ed258	-0.014576517
64	0xbda31e9d	-0.079648234
65	0xbdcc240b	-0.09967812
66	0x3d86f2d6	0.06589286
67	0xbd380a96	-0.04493197
68	0x3dd4d887	0.10392862
69	0xbd07bf71	-0.033141557
70	0x3dad32e8	0.08456975
71	0x3d087b31	0.03332061
72	0x3d501ab3	0.050806712
73	0xbd3247e6	-0.0435256
74	0x3d7f5d28	0.0623447
75	0x3d64fc55	0.055904705
76	0xbdadb1b3	-0.08481159
77	0xbc36bc0c	-0.011153232
78	0x3d95fffe	0.07324217
79	0x3da025a6	0.07819681
80	0x3c0420f9	0.008064502
81	0x3dd26119	0.10272426
82	0xbcbc98c0	-0.023022056
83	0x3bbaa851	0.0056963344
84	0xbd2bb068	-0.04191628
85	0x3c94a8a5	0.018146822
86	0x3d86bd18	0.065790355
87	0xbd9782a6	-0.07397966
88	0x3cf0b72a	0.029384214
89	0x3dbd0fa1	0.092314966
90	0xbde76ff8	-0.11300653
91	0xbcbf0233	-0.023316478
92	0x3cabfbb5	0.020994047
93	0x3db53ce5	0.08849505
94	0x3d5dc479	0.05414245
95	0xbdb98abc	-0.090596646
96	0x3df405fe	0.119152054
97	0x3d87ea51	0.06636489
98	0xbd666a5a	-0.05625377
99	0xbda4919b	-0.080355845
100	0x3cf94964	0.030430503
101	0xbd7b8b12	-0.061411925
102	0x3dbb8106	0.09155469
103	0x3cfffada	0.031247545
104	0x3d8601c5	0.06543306
105	0x3cc1198c	0.023571752
106	0xbdbe85ef	-0.093028896
107	0xbda224a9	-0.079171486
108	0xbcfc2460	-0.030779064
109	0xb9956872	-0.00028497312
110	0xbd2405d1	-0.04004461
111	0x3dcdfdb4	0.10058156
112	0x3d317070	0.04332012
113	0x3d3b1c7a	0.045681454
114	0x3dcdc88c	0.10048017
115	0xbd66901f	-0.05628979
116	0x3d7ad7a0	0.061240792
117	0x3c705609	0.01466895
118	0xbd8c3b5e	-0.06847261
119	0x3c6bac71	0.014384375
120	0x3d6d27d9	0.05789933
121	0x3cc214f4	0.023691632
122	0xbd317cb3	-0.043331813
123	0xbd142203	-0.03616525
124	0xbaa2362a	-0.0012375761
125	0x3cda8483	0.026674515
126	0x3db579e4	0.088611394
127	0xbd81958d	-0.06327353
128	0x3c6291fe	0.013828753
129	0xbdaec2f1	-0.08533276
130	0xbc061474	-0.008183587
131	0xbda75844	-0.08171132
132	0x3a49a1a8	0.000769163
133	0x3d84da91	0.06487001
134	0xbbfd3fc2	-0.007728548
135	0x3d5c67d6	0.053809963
136	0x3bbe6893	0.005810806
137	0x3de09aff	0.10967063
138	0x3dc99cbf	0.0984435
139	0x3df6a340	0.12042856
140	0xbda92a60	-0.082600355
141	0xbd80c380	-0.06287289
142	0x3d9ca5bf	0.07648801
143	0xbd33f4b8	-0.043934554
144	0x3d91f02e	0.07125889
145	0xbd17122a	-0.036882557
146	0xbd808698	-0.06275672
147	0xbd89f656	-0.06736438
148	0x3db77d23	0.08959415
149	0xbae911ce	-0.0017781795
150	0xbc6763cc	-0.0141229145
151	0xbda73c32	-0.08165778
152	0x3db929d9	0.09041185
153	0xbd078f9a	-0.033095933
154	0xbd46b934	-0.048516467
155	0x3d841a2d	0.06450305
156	0xbd02ba34	-0.03191586
157	0x3d166f3d	0.03672718
158	0x3d011502	0.031514175
159	0x3db2b141	0.08725215
160	0x3d1afa5c	0.037836418
161	0xbd148265	-0.036257166
162	0x3d302afe	0.04300975
163	0xbdacbdb5	-0.08434621
164	0x3e002969	0.12515797
165	0x3ae9076c	0.0017778701
166	0xbd2559cf	-0.04036885
167	0x3c1c4a7d	0.009539244
168	0xbd03be3f	-0.032163855
169	0x3d637328	0.055529743
170	0x3cc56657	0.024096651
171	0x3be33e85	0.006934943
172	0x3c7d22da	0.015450204
173	0xbda0ab72	-0.078452006
174	0x3d6caf81	0.05778456
175	0x3d8acbf2	0.06777181
176	0x3ccab28f	0.024743346
177	0x3df9f844	0.12205556
178	0xbd0b2967	-0.03397503
179	0xbdaf149a	-0.08548851
180	0x3d3b786b	0.045769136
181	0x3dbd4706	0.09242062
182	0x3da95cf3	0.08269682
183	0x3d822ea5	0.06356553
184	0x3ce999b1	0.028515669
185	0xbd1d74d6	-0.0384415
186	0x3d9bc548	0.07605988
187	0xbcd3871e	-0.025821265
188	0x3d9c53bc	0.076331586
189	0x3da35213	0.07974639
190	0x3c372573	0.011178362
191	0xbd2c9af6	-0.04213997
192	0x3d84608a	0.06463726
193	0xbda708ed	-0.08155999
194	0x3da9eef2	0.08297528
195	0xbdb8dfa8	-0.09027034
196	0x3db5c996	0.0887634
197	0x3e03e213	0.12879209
198	0x3daa8b36	0.08327334
199	0x3ca5dec1	0.020247819
200	0x3d8dc4e2	0.06922318
201	0x3cac5917	0.021038575
202	0x3d86e24c	0.065861315
203	0x3cc2c970	0.023777694
204	0x3d902d71	0.07039917
205	0xbd31e100	-0.043427467
206	0x3d34a8de	0.044106357
207	0xbcb8e1e9	-0.02256866
208	0xbd2c2f36	-0.04203721
209	0x3ca9504a	0.020668168
210	0x3dcd753b	0.100321256
211	0xbd9e7b8d	-0.07738409
212	0x3d6dc35c	0.058047637
213	0xbddc01d5	-0.10742537
214	0xbd0eaed4	-0.034834698
215	0xbd032022	-0.032013066
216	0xbd66acef	-0.056317266
217	0xbd8fcf8d	-0.07022009
218	0xbc67c21c	-0.0141454
219	0x3bb2b518	0.005453717
220	0x3c88840f	0.016664533
221	0xbccc5fe2	-0.024948064
222	0x3d81d4c2	0.063394085
223	0xbc96fa63	-0.01842994
224	0xbc69dc1c	-0.01427367
225	0xbcbc5477	-0.022989495
226	0xbcedc362	-0.02902383
227	0xbb79c515	-0.0038111855
228	0xbcc5ca1b	-0.024144223
229	0xbd7e6dcb	-0.062116425
230	0x3ded8553	0.11597695
231	0xbd33cbd7	-0.04389557
232	0x3d6a0c86	0.05714085
233	0x397f2c55	0.0002433521
234	0x3de97503	0.11399271
235	0xbc71a38a	-0.014748463
236	0x3d8bb371	0.06821335
237	0x3dc3e2b3	0.09564724
238	0xbce6930b	-0.028146287
239	0x3d862d71	0.06551636
240	0xbd1f2a6c	-0.038858816
241	0xbdb60fff	-0.0888977
242	0xbcfe2051	-0.031021269
243	0x3d9a7e71	0.07543648
244	0xbb8930af	-0.0041867117
245	0x3cad2c41	0.021139266
246	0x3d03c0e7	0.032166388
247	0x3d9103af	0.07080781
248	0xbca1c626	-0.019747805
249	0x3d5638a1	0.0523001
250	0x3d61e35a	0.05514846
251	0xbdae81f7	-0.085208826
252	0x3da9c655	0.08289782
253	0xbd26b1db	-0.04069696
254	0xbcae2927	-0.021259857
255	0x3db538d3	0.08848729

fc1.bias f4 [84]
0	0x3be76741	0.0070618694
1	0x3da1bac2	0.07896949
2	0x394a1735	0.00019272866
3	0x3da489da	0.080341056
4	0xbd8fa8f6	-0.070146486
5	0xbcd5ee14	-0.026114501
6	0xbd4d2a26	-0.050089024
7	0xbd0b08f6	-0.033944093
8	0x3d39091e	0.04517471
9	0xbcd95565	-0.026529977
10	0xbd1944b0	-0.03741902
11	0x3d8902a7	0.06689959
12	0x3d8ba439	0.06818432
13	0x3d63d111	0.055619303
14	0xbd7d459a	-0.061833955
15	0xbdc3917a	-0.09549232
16	0x3dabddc4	0.08391908
17	0x3c124741	0.008928121
18	0x3c7861a3	0.015159997
19	0x3d3b6895	0.045754034
20	0x3cc9c592	0.024630342
21	0xbd9eb262	-0.077488676
22	0xbd267c4b	-0.04064588
23	0xbdaa1afc	-0.08305928
24	0xbd53f2ba	-0.051745154
25	0x3d9cc988	0.076556265
26	0x3d6099d2	0.054834194
27	0x3d89f0dc	0.067353934
28	0xbb505593	-0.0031789287
29	0xbdac5f22	-0.08416583
30	0x3d690c03	0.05689622
31	0xba8ad133	-0.0010590911
32	0xbcc5ee52	-0.024161492
33	0xbc9a7cd0	-0.018858343
34	0x3d9ac60a	0.07557304
35	0x3d13ecd3	0.036114525
36	0x3c09e4e2	0.008416386
37	0xbd93567c	-0.0719423
38	0xbd77853d	-0.0604298
39	0xbc9804ef	-0.01855704
40	0x3c7ca033	0.015419054
41	0xbd91b31e	-0.07114242
42	0xbd4937d6	-0.049125515
43	0x3d8b4d5a	0.06801863
44	0x3d87c419	0.066291995
45	0xbb99c2bb	-0.004692403
46	0x3c97b72e	0.018519964
47	0xbc8aa13a	-0.016922582
48	0xbd60aaf9	-0.054850552
49	0xbd2c252b	-0.042027634
50	0x3b13318b	0.002245995
51	0x3db6cd45	0.08925871
52	0xbba4daf7	-0.0050309855
53	0x3d4c7d05	0.049923915
54	0xbda4bf23	-0.08044269
55	0xbd34e48c	-0.04416327
56	0x3d86168a	0.06547268
57	0xbc9c8bcd	-0.019109631
58	0x3d372c90	0.044720232
59	0x3c933077	0.017967446
60	0x3d67e752	0.05661709
61	0xbb008ccf	-0.0019615178
62	0x3d955192	0.07290949
63	0x3d45568d	0.048178244
64	0x3befbe09	0.007316355
65	0x3d1811e1	0.037126426
66	0x3cdb17a7	0.026744677
67	0x3d4538a1	0.04814971
68	0xbd23f37f	-0.040027138
69	0x3dac1591	0.08402551
70	0x3d46ed8d	0.04856639
71	0xbc85126c	-0.016244136
72	0xbdb381da	-0.087650016
73	0x3d92e952	0.071734086
74	0xbd281e83	-0.041044723
75	0xbd82fabe	-0.063954815
76	0x3d366fd3	0.044540238
77	0xbd048172	-0.03235001
78	0x3db08315	0.08618752
79	0x3d0128d1	0.031533066
80	0xbd31d09a	-0.04341183
81	0xbd139c44	-0.0360377
82	0x3cd16d0d	0.025564695
83	0x3d9735ef	0.07383334

fc2.weight f4 [10, 84]
0	0xbe295dde	-0.16539714
1	0xbc20831a	-0.009796882
2	0x3e07f3e3	0.13276629
3	0x3e65620f	0.22400688
4	0x3db010bd	0.085969426
5	0xbd43e106	-0.04782202
6	0x3c6de0d5	0.014518936
7	0xbc9b6cce	-0.01897278
8	0x3c3a2475	0.011361231
9	0xbe1d4c33	-0.15361099
10	0xbd8a94f3	-0.06766691
11	0x3d9baa73	0.0760087
12	0x3d95c0ee	0.07312189
13	0xbe009c99	-0.12559737
14	0x3e316367	0.17323075
15	0xbc9f597e	-0.019451853
16	0xbdbad24b	-0.091221415
17	0xbc9a5180	-0.01883769
18	0x3da93d78	0.08263677
19	0xbdc42d6e	-0.095789775
20	0x3d11438b	0.035464805
21	0x3e39d950	0.18149304
22	0xbd24b9b4	-0.040216163
23	0xbd387e5e	-0.04504239
24	0xbdab8c3b	-0.08376356
25	0x3de40076	0.111329004
26	0xbcd6616a	-0.026169498
27	0xbdac0b8b	-0.08400639
28	0xbdb80343	-0.08984997
29	0xbdb2d2f3	-0.087316416
30	0xbe66aeec	-0.22527665
31	0xbd4e4e90	-0.05036789
32	0x3e0855c2	0.13313964
33	0xbe4b6d9a	-0.19866028
34	0xbd4f794c	-0.050652787
35	0xbe22b3b1	-0.1588886
36	0x3dcb7fcf	0.09936487
37	0xbd841b1c	-0.06450483
38	0xbdd99aab	-0.10625204
39	0x3da25d1a	0.07927914
40	0x3afdc5b3	0.0019361287
41	0x3d4bad72	0.049725957
42	0xbd80f3af	-0.06296479
43	0xbd8a6943	-0.06758358
44	0x3d2f5513	0.042805742
45	0xbcd1ddac	-0.025618397
46	0x3d0488cf	0.032357033
47	0xbe47f02a	-0.19525209
48	0xbd983b34	-0.07433167
49	0x3dc255ce	0.09489022
50	0x3ca046bb	0.019564977
51	0xbc9d5a66	-0.019208144
52	0x3e18ba1c	0.14914745
53	0xbddafbf4	-0.106925875
54	0xbe34c549	-0.17653383
55	0xbc233268	-0.009960748
56	0x3dd47748	0.103743136
57	0x3caa3126	0.020775389
58	0xbe2cc642	-0.16872504
59	0x3dfaabe7	0.12239819
60	0xbd38d0e6	-0.045121096
61	0xbda5f2e4	-0.08102968
62	0x3d86c8de	0.06581281
63	0xbe4cdd1f	-0.20006226
64	0xbe2b0451	-0.16700865
65	0x3b8c7c04	0.0042872448
66	0x3e146252	0.14490631
67	0x3e6ed6de	0.23324153
68	0xbc40ca10	-0.011766925
69	0x3d5e1697	0.054220762
70	0x3e3bb99b	0.18332522
71	0x3e2274b9	0.15864839
72	0x3c00532a	0.007832328
73	0xbe08a65c	-0.13344711
74	0xbcb10df1	-0.021613093
75	0x3d367346	0.044543527
76	0x3d5a5894	0.05330713
77	0xbdeb6c99	-0.11495323
78	0x3d9a0f82	0.07522489
79	0x3d4067b6	0.046973906
80	0xba7fa6e8	-0.0009752349
81	0x3c2a44ad	0.01039235
82	0xbd3a91bf	-0.04554915
83	0xbe0cb8ab	-0.1374232
84	0xbe03d813	-0.12875395
85	0x3dd32e61	0.103115804
86	0xbd8ed64b	-0.06974467
87	0xbca04ff1	-0.019569369
88	0x3d6287f9	0.055305455
89	0x3dbc7e2e	0.09203754
90	0x3daf4f50	0.085600495
91	0xbe003f00	-0.12524033
92	0xbde29a39	-0.11064572
93	0xbdc810b1	-0.09768809
94	0xbe070f8a	-0.13189521
95	0xbd80360e	-0.0626031
96	0x3e12bee2	0.14330629
97	0x3d5fd76e	0.05464881
98	0xbd9918b4	-0.07475415
99	0xbd4ad837	-0.049522605
100	0xbd711f86	-0.058867954
101	0xbbab5433	-0.005228543
102	0x3daf79c8	0.0856815
103	0x3d2b8bfa	0.04188154
104	0xbcc17013	-0.023613011
105	0x3d9c17fd	0.07621763
106	0xbdd7e532	-0.105417624
107	0x3c8b6797	0.017017169
108	0x3be84bff	0.0070891376
109	0x3bc9a90f	0.0061541866
110	0x3defcacf	0.117086045
111	0x3d5b2867	0.053505328
112	0x3e310961	0.17288734
113	0xbd377322	-0.044787534
114	0x3e87f49d	0.26553813
115	0x3e4ef254	0.20209628
116	0xbe364233	-0.1779869
117	0xbe1500e2	-0.14551118
118	0xbc4a97a8	-0.012365259
119	0x3c159728	0.009130277
120	0x3e429850	0.19003415
121	0xbdd158e1	-0.102220304
122	0x3dba30ef	0.090913646
123	0xbe78b380	-0.24287224
124	0x3e4539ea	0.19260374
125	0xbcca8515	-0.024721662
126	0xbe058051	-0.1303723
127	0x3e3ff3b8	0.18745315
128	0x3e52ab88	0.20573246
129	0x3ba8c2f2	0.0051501924
130	0xbdd16352	-0.10224022
131	0x3d84ac14	0.06478134
132	0x3cb1d2a7	0.021706892
133	0x3d48d56b	0.049031656
134	0xbdee470c	-0.11634645
135	0x3dea5764	0.1144245
136	0xbe2f8c3e	-0.17143342
137	0xbdc443b9	-0.095832296
138	0x3e3bf111	0.18353678
139	0xbda7c562	-0.08191945
140	0x3d1af1f8	0.037828416
141	0xbe7bea03	-0.24600987
142	0x3d581d15	0.05276211
143	0xbe1da757	-0.15395866
144	0x3d084962	0.03327311
145	0x3cf128c8	0.029438391
146	0xbe15c827	-0.14627133
147	0xbd96a880	-0.073563576
148	0x3d9d0fd6	0.07669036
149	0x3d96bf4d	0.073607065
150	0xbbda6d9f	-0.0066659
151	0x3c1cc59a	0.009568596
152	0x3d4f0ceb	0.05054943
153	0xbd6f2118	-0.05838117
154	0xbe085844	-0.1331492
155	0xbe3cb3a0	-0.18427896
156	0xbd935ea4	-0.07195786
157	0xbc8006d2	-0.015628252
158	0x3c790563	0.015199038
159	0xbdae8f70	-0.08523452
160	0xbd867d35	-0.0656685
161	0x3e26aefa	0.16277686
162	0x3cbaf2b9	0.022820817
163	0xbca5f7a1	-0.02025968
164	0x3e03f9fc	0.1288833
165	0x39e0eff9	0.00042903403
166	0xbd8eebfb	-0.069786035
167	0xbdbe6a2f	-0.09297597
168	0x3e1f56ef	0.15560506
169	0x3dc5db5d	0.09660981
170	0x3e0ef8db	0.13962118
171	0x3dc34e7b	0.09536453
172	0xbdcfba2e	-0.10142933
173	0x3b3bfdb7	0.0028685161
174	0x3d87356f	0.066019885
175	0x3d9dba01	0.07701493
176	0x396e2f70	0.0002271512
177	0x3e54de36	0.20787892
178	0xbe3cd23b	-0.18439572
179	0x3e35b39b	0.17744295
180	0x3d1d9f48	0.03848198
181	0x3d1c66c3	0.03818394
182	0xbd321f1d	-0.043486703
183	0x3d8b94ef	0.06815516
184	0xbd3a2e8d	-0.04545455
185	0xbdb23e02	-0.08703233
186	0x3d92f00a	0.0717469
187	0x3c3ab53c	0.011395749
188	0xbd8d094b	-0.06886538
189	0xbda9d60d	-0.0829278
190	0xbd18edc2	-0.03733612
191	0xbd34047e	-0.043949597
192	0x3e10a27a	0.1412448
193	0x3c65f817	0.0140362
194	0xbdd63730	-0.10459745
195	0xbdb0b3e1	-0.08628059
196	0x3e23a887	0.15982257
197	0x3da5f04a	0.08102472
198	0x3d9ecc4a	0.07753809
199	0xbd7734ab	-0.060352962
200	0xbd84241f	-0.06452202
201	0xbe0c92e6	-0.13727912
202	0x3dc3022d	0.09521899
203	0xbe11cb11	-0.1423762
204	0xbe525719	-0.20541038
205	0x3db4364a	0.08799417
206	0xbd85dff6	-0.06536858
207	0x3dbcde14	0.092220455
208	0xbd329bd1	-0.04360563
209	0xbdfa3f01	-0.12219048
210	0xbdb1bba3	-0.08678367
211	0xbdd0b7d2	-0.10191311
212	0xbe30882c	-0.17239445
213	0x3be0e2f9	0.0068629947
214	0xbe1edaaa	-0.15513101
215	0xbdc888a0	-0.09791684
216	0xbd687d91	-0.056760374
217	0x3df41928	0.11918861
218	0x3db5af7c	0.088713616
219	0x3cbec6d6	0.023288172
220	0x39af6390	0.0003345278
221	0x3aedccac	0.0018142662
222	0x3b947365	0.0045303577
223	0x3d52d8c6	0.051476263
224	0xbca1df1e	-0.01975971
225	0x3d4d1578	0.050069302
226	0xbe70e5c5	-0.2352515
227	0xbe0de02f	-0.1385505
228	0xbdee8136	-0.11645739
229	0x3e377fdc	0.17919868
230	0xbdbe27d8	-0.09284943
231	0xbdd5b6fc	-0.10435292
232	0x3dac915b	0.08426162
233	0x3dc44d0a	0.095850065
234	0x3be9eb7f	0.007138669
235	0x3e3a9652	0.18221405
236	0x3ce5b402	0.028039936
237	0xbce70ff9	-0.028205859
238	0x3b650777	0.0034947076
239	0x3d3eb155	0.046555836
240	0x3ddb5316	0.10709207
241	0x3d0aee83	0.03391887
242	0x3d9bfa21	0.07616068
243	0x3de89848	0.1135717
244	0xbdcb9970	-0.09941375
245	0x3e183929	0.14865555
246	0xbe094ade	-0.13407466
247	0xbd9d471a	-0.07679577
248	0x3d19b43d	0.037525404
249	0xbe81106e	-0.25207847
250	0xbd647732	-0.055777736
251	0xbe316ddb	-0.17327063
252	0xbb4b1342	-0.003098682
253	0xbe18bf57	-0.1491674
254	0x3e068f39	0.13140573
255	0x3c87b067	0.016563607

fc2.bias f4 [10]
0	0xbcf724d8	-0.030168936
1	0x3c66e402	0.014092447
2	0x3d0af519	0.03392515
3	0xbc3d538b	-0.011555563
4	0xbd670eb5	-0.05641051
5	0x3e06ceb2	0.13164786
6	0xbdc7fea2	-0.09765364
7	0xbd589f94	-0.05288656
8	0x3cce6355	0.02519385
9	0x3d81c58e	0.06336509
