model_save/lenet_parameter.pkl (torch_old, 248423 bytes, 10 tensors)

conv1.weight f4 [6, 1, 5, 5]
0	0xbe0c30a5	-0.13690431
1	0xb9356800	-0.00017300248
2	0x3e312211	0.17298152
3	0xbc6814d0	-0.014165118
4	0x3dfd0286	0.12353997
5	0x3e150ec9	0.14556421
6	0x3dd3a192	0.103335515
7	0x3dc0b042	0.094086185
8	0xbe1505c3	-0.14552979
9	0xbe487532	-0.19575956
10	0x3d556394	0.05209692
11	0x3d99eea2	0.07516219
12	0x3dfab392	0.122412816
13	0x3d4b5680	0.04964304
14	0xbd11810c	-0.03552346
15	0x3dd11aca	0.10210188
16	0xbdbae7e7	-0.09126263
17	0xbe3e0a78	-0.18558681
18	0xbc9e4a58	-0.01932256
19	0x3e41f935	0.18942721
20	0x3c9ff2f0	0.019525021
21	0xbe256f1e	-0.16155669
22	0xbcc224a8	-0.02369912
23	0xbe1413be	-0.14460656
24	0x3d2259c0	0.039636374
25	0xbdc5d0c7	-0.09658962
26	0xbdc281c0	-0.09497404
27	0xbe2ca73a	-0.16860667
28	0xbe3122d5	-0.17298444
29	0x3c89c140	0.016815782
30	0xbe349bba	-0.1763753
31	0xbc349f60	-0.011024326
32	0x3d0589e8	0.03260222
33	0xbdf1b770	-0.11802566
34	0xbe4932e0	-0.19648314
35	0x3d9ab20a	0.075534895
36	0x3e2f6db5	0.17131694
37	0x3e060011	0.13085963
38	0x3d107928	0.035271794
39	0x3c42eb50	0.011896923
40	0x3e3f1a39	0.18662347
41	0xbdcefaa0	-0.10106397
42	0x3d41e400	0.04733658
43	0x3c3ffb30	0.011717603
44	0x3c41c420	0.011826545
45	0xbe35a9db	-0.17740576
46	0xbe0c25fe	-0.13686368
47	0x3ddb380a	0.10704048
48	0xbdd456fd	-0.10368154
49	0xbd45c1e0	-0.048280597
50	0x3e1837d5	0.14865048
51	0xbc85a868	-0.016315654
52	0xbc9c1b28	-0.019055918
53	0xbc8b0e98	-0.016974732
54	0xbe2dc420	-0.16969347
55	0x3dc0638a	0.093939856
56	0xbcc987d8	-0.024600908
57	0x3df80db6	0.1211199
58	0xbc0b8660	-0.008515924
59	0xbda01293	-0.07816043
60	0x3d5c9264	0.053850546
61	0xbe3f7883	-0.18698315
62	0xbe282c08	-0.16423047
63	0x3d228d34	0.039685443
64	0x3e3aeb3b	0.18253796
65	0xbe2de100	-0.16980362
66	0x3e29d4e1	0.16585113
67	0x3d4babc8	0.04972437
68	0x3da3471a	0.07972546
69	0x3dcfc89a	0.101456836
70	0x3c9bf790	0.019038945
71	0x3e0795e9	0.1324078
72	0xbdacbdea	-0.08434661
73	0x3e2b3e17	0.16722904
74	0xbd7130a8	-0.058884293
75	0xbc882b90	-0.016622335
76	0xbdfe7130	-0.124239326
77	0x3e1a0091	0.15039279
78	0x3e195559	0.14973964
79	0xbd2d592c	-0.04232137
80	0x3be54340	0.006996542
81	0x3dd7ed86	0.10543351
82	0x3e3a99cd	0.18222733
83	0x3e408463	0.18800502
84	0xbd3f89cc	-0.046762273
85	0x3cd294d8	0.02570574
86	0x3c2a6a60	0.010401338
87	0x3db764f2	0.08954801
88	0x3e29d2d1	0.16584326
89	0x3e3c8b03	0.18412404
90	0xbdf98373	-0.12183275
91	0xbd9a19ea	-0.07524474
92	0xbe2e44f2	-0.17018488
93	0xbd81e864	-0.06343153
94	0x3c2bbaa0	0.010481507
95	0xbe40a0a3	-0.18811278
96	0x3e4ba4bb	0.19887058
97	0x3e106627	0.14101468
98	0xbc748080	-0.014923215
99	0xbdb42540	-0.087961674
100	0x3e3b8819	0.18313636
101	0x3e21ce91	0.15801455
102	0xbdcd8f40	-0.100370884
103	0xbd37a1a8	-0.0448319
104	0xbe2df58d	-0.16988201
105	0xbd0f6594	-0.03500898
106	0x3d38faec	0.045161173
107	0xbd0d9848	-0.034569055
108	0x3e0ef0b7	0.13959013
109	0xbd0978f8	-0.03356263
110	0xbd8ec64c	-0.06971416
111	0x3db8801e	0.090088114
112	0xbe320e10	-0.17388177
113	0x3d3d9128	0.04628101
114	0x3ddc54fa	0.107583955
115	0x3e1c5393	0.15266256
116	0x3e1c7963	0.1528068
117	0x3e02a16b	0.12756889
118	0xbd86ec4c	-0.06588039
119	0xbc02ab30	-0.007975385
120	0xbda3f23a	-0.080051854
121	0xbd98f5fc	-0.07468793
122	0xbe2f3255	-0.17109044
123	0x3e1cc139	0.15308084
124	0xbd913246	-0.07089667
125	0x3e1ad14b	0.15118901
126	0xbe209386	-0.15681276
127	0xbe3bf722	-0.18355992
128	0x3e1e96b1	0.15487172
129	0x3e0338eb	0.12814681
130	0x3dc31faa	0.09527524
131	0xbda5a06d	-0.080872394
132	0xbdf5978a	-0.119917944
133	0xbcac35f0	-0.021021813
134	0x3ce9a430	0.028520674
135	0xbd9ee793	-0.07759013
136	0xbdfc4603	-0.12318041
137	0xbdd36a3a	-0.103229955
138	0x3e0503b9	0.12989701
139	0x3def98fa	0.116991
140	0x3da15782	0.07878019
141	0xbe2b2ab3	-0.16715507
142	0x3e0e5513	0.1389964
143	0xbd9b8040	-0.07592821
144	0x3d974a0a	0.07387169
145	0xbe477bcb	-0.19480817
146	0xbd267334	-0.04063721
147	0x3dff7476	0.12473385
148	0x3d3c6c4c	0.046001717
149	0x3d0fe9a0	0.03513491

conv1.bias f4 [6]
0	0x3cd72730	0.026263803
1	0x3dd28822	0.102798715
2	0xbc99b740	-0.018764138
3	0xbcba1c30	-0.022718519
4	0xbe3ff8f2	-0.18747309
5	0x3c0389b0	0.008028433

conv2.weight f4 [16, 6, 5, 5]
0	0xbcee959a	-0.02912407
1	0xbd50afae	-0.05094879
2	0x3d81e8b0	0.0634321
3	0x3d92f73e	0.07176064
4	0x3d8b2214	0.06793609
5	0xbb5270e0	-0.0032110736
6	0xbd9115fa	-0.0708427
7	0x3d473f54	0.04864438
8	0xbda0a1df	-0.078433745
9	0x3c198e70	0.009372339
10	0x3cfdb784	0.030971296
11	0xbc50c600	-0.012742519
12	0xbd2e788a	-0.042595424
13	0x3d469dc4	0.0484903
14	0x3d2c62ae	0.042086296
15	0x3d19c5b6	0.037542067
16	0xbd7f7cee	-0.062375
17	0xbd455896	-0.048180185
18	0x3d255dde	0.04037272
19	0xbb9e8f00	-0.0048388243
20	0x3cdcc408	0.026948944
21	0x3c891d5c	0.016737632
22	0x3d592030	0.053009212
23	0x3c8c490c	0.017124675
24	0x3b7d5660	0.003865622
25	0x3d5f8cec	0.054577753
26	0xbda1d743	-0.07902386
27	0xbd7eb53f	-0.06218457
28	0x3d29004c	0.04126005
29	0xbd74f342	-0.0598023
30	0xbd119deb	-0.035550993
31	0xbb748000	-0.003730774
32	0x3d8b49d2	0.068011895
33	0x3d137ce8	0.03600779
34	0x3d9200fe	0.071290955
35	0x3c9f93c0	0.019479632
36	0x3c5ea9f8	0.013590328
37	0x3cfd0d88	0.030890241
38	0x3aa0f440	0.0012279823
39	0x3d27f954	0.041009262
40	0xbcbac678	-0.022799715
41	0x3da57da0	0.08080602
42	0xbbfbd540	-0.0076853335
43	0x3c887814	0.01665882
44	0xbd84f7b5	-0.06492559
45	0x3d895af6	0.067068025
46	0xbd5df3a7	-0.054187443
47	0x3da2dd86	0.079524085
48	0x3b459c80	0.0030153096
49	0xbd9b8f0a	-0.07595642
50	0x3d13bd8e	0.036069445
51	0xbd0d145f	-0.034443256
52	0xbd2ecd5f	-0.042676326
53	0x3d871cfe	0.06597327
54	0x3d9353d6	0.07193725
55	0xbda012a5	-0.07816056
56	0x3d90939a	0.07059403
57	0xbd9fe973	-0.07808199
58	0x3d323864	0.04351081
59	0xbc14f6f0	-0.009092078
60	0x3c456518	0.012048028
61	0x3d1dcb6c	0.038524076
62	0x3d8eed44	0.069788486
63	0x3d85aaf8	0.0652675
64	0xbd932929	-0.07185585
65	0xbd49fe82	-0.049314983
66	0xbd1a661a	-0.037695028
67	0xbd25ead6	-0.04050716
68	0x3c9b6b0c	0.018971942
69	0xbd40ce0c	-0.0470715
70	0xbc198be0	-0.009371728
71	0x3c0adb00	0.008475065
72	0xbd353bb5	-0.044246394
73	0xbd81a82b	-0.063309036
74	0x3c297618	0.010343097
75	0x3cc85e84	0.024459131
76	0xbd9b4a0e	-0.07582484
77	0x3cb9e34c	0.022691391
78	0xbd92ea57	-0.07173603
79	0x3d8c5bc8	0.068534434
80	0x3d7ec1bc	0.06219648
81	0x3c86435c	0.016389541
82	0x3d1cdc1c	0.03829585
83	0xbd7291b4	-0.059220985
84	0xbd538b7c	-0.051646695
85	0x3be0fd90	0.0068661645
86	0x3d9240aa	0.0714124
87	0x3da4e098	0.0805065
88	0xbd8f409e	-0.069947466
89	0x3d6e1218	0.058122724
90	0x3d3e79a4	0.046502724
91	0x3d02c8e2	0.031929858
92	0x3d4220dc	0.04739462
93	0x3bd6b1e0	0.006551966
94	0xbd152e84	-0.036421314
95	0x3d26a92e	0.040688686
96	0x3d4ee4b0	0.050511062
97	0x3d4d0e60	0.050062537
98	0xbd89b57c	-0.067240685
99	0x3d983fbc	0.07434031
100	0xbd79d8e0	-0.060997844
101	0xbccc2a32	-0.024922464
102	0x3d0d14b2	0.034443565
103	0x3d95c86a	0.073136166
104	0x3d32a7b4	0.043616965
105	0xbd38629e	-0.045015924
106	0xbd1dc884	-0.038521305
107	0x3d44e648	0.048071176
108	0x3bb471e0	0.005506739
109	0x3cd7ebb4	0.02635751
110	0xbba27eb0	-0.00495895
111	0xbd97e3b6	-0.07416479
112	0xbb719900	-0.0036864877
113	0x3d7f6098	0.06234798
114	0x3d966af8	0.073446214
115	0xbd9269b1	-0.07149065
116	0xbd8ef2bf	-0.06979894
117	0xbbceb580	-0.0063082576
118	0xbd9e3ada	-0.07726069
119	0xbd1a4b96	-0.03766974
120	0xbd230de6	-0.039808176
121	0x3d08424e	0.033266358
122	0x3d38d258	0.045122474
123	0x3a4f1380	0.0007899329
124	0x3d896e12	0.06710447
125	0xbd460d41	-0.048352484
126	0xbd65e6df	-0.05612838
127	0xbd524a00	-0.051340103
128	0x3d90be16	0.07067506
129	0x3d82bb80	0.06383419
130	0x3d816f28	0.063200295
131	0x3d8a158c	0.06742391
132	0x3d90db20	0.07073045
133	0xbcea901e	-0.028633174
134	0x3d994618	0.074840724
135	0xbd22cce3	-0.039746176
136	0x3d91b752	0.07115044
137	0xbd7654ba	-0.060139395
138	0xbcd1143c	-0.025522344
139	0xbbcd02a0	-0.0062564164
140	0x3d009402	0.03139115
141	0x3cd37008	0.025810257
142	0xbcff4788	-0.031162038
143	0x3d6b0fbc	0.057388052
144	0xbd510864	-0.051033393
145	0xbc88da38	-0.016705617
146	0xbd75923d	-0.059953917
147	0xbb710a60	-0.0036779866
148	0x3c83de1c	0.016097121
149	0x3d41ae94	0.04728563
150	0xbda2500c	-0.07925424
151	0x3c4e0a28	0.012575664
152	0x3ca09b1c	0.019605212
153	0xbd58c5a2	-0.052922852
154	0x3b0c2320	0.002138324
155	0x3da4426a	0.0802048
156	0x3d5c48a4	0.053780213
157	0x3d1039ea	0.03521148
158	0xbd95cdea	-0.073146656
159	0xbccac568	-0.024752334
160	0x3b6810c0	0.0035410374
161	0x3b391f60	0.002824746
162	0xbb39df80	-0.0028361976
163	0xbaf795c0	-0.0018889233
164	0xbd9e5040	-0.0773015
165	0x3d7931c4	0.060838476
166	0x3ce4ce44	0.027930386
167	0xbd722cea	-0.059124865
168	0x3d66af90	0.056319773
169	0x3d195f72	0.03744454
170	0xbda23916	-0.079210445
171	0xbd165894	-0.03670557
172	0x3d396ad8	0.04526791
173	0x3d37ed20	0.044903874
174	0xbd45dc2f	-0.048305687
175	0xbc218a58	-0.009859644
176	0x3d96e188	0.073672354
177	0xbcf84e0a	-0.03031065
178	0xbcb5ecc8	-0.022207633
179	0xbd91aff2	-0.07113637
180	0xbd28f0cb	-0.041245263
181	0xbd307d93	-0.043088507
182	0xbd5fca1c	-0.054636106
183	0x3b6cbc20	0.0036122873
184	0x3d96978e	0.073531255
185	0x3aa8a800	0.0012867451
186	0x3d9ab1ae	0.07553421
187	0xbd0c5e2e	-0.034269504
188	0xbbdaf450	-0.0066819564
189	0xbd6b9fb2	-0.057525344
190	0x3c13f150	0.009029701
191	0x3d8e7db8	0.06957573
192	0x3cc98e00	0.024603844
193	0xbc7c6848	-0.015405722
194	0xbd5e673d	-0.054297674
195	0x3d807744	0.06272748
196	0x3d96a3c4	0.073554546
197	0xbd965260	-0.073399305
198	0xbd6d835a	-0.057986595
199	0xbd8cb227	-0.06869917
200	0xbd9bfbd7	-0.07616394
201	0x3c9ff9f0	0.01952836
202	0x3c146f78	0.009059779
203	0x3da56092	0.0807506
204	0xbcdf4cae	-0.027258243
205	0x3c3c3848	0.011488028
206	0xbd4c91d1	-0.04994375
207	0xbcc39482	-0.023874525
208	0x3b234040	0.0024910122
209	0x3c9b2d2c	0.018942438
210	0x3d4a56b0	0.049399078
211	0x3d839a7c	0.0642595
212	0x3c8f8c00	0.017522812
213	0x3d93d730	0.07218778
214	0xbc1afd60	-0.009459823
215	0xbd495163	-0.049149882
216	0x3d0f92e2	0.035052188
217	0xbd14d8c1	-0.036339525
218	0x3c839514	0.016062297
219	0xbc53ebe8	-0.012934662
220	0x39165200	0.00014335662
221	0xbd858432	-0.06519355
222	0xbd815c50	-0.06316435
223	0x3d6767bc	0.056495413
224	0xbb8c4a40	-0.004281312
225	0xbcf2a9bc	-0.029621951
226	0xbbcd85d0	-0.006272055
227	0xbbb08570	-0.0053870007
228	0x3d84f6c0	0.06492376
229	0x3cae99f8	0.021313652
230	0x3d619f44	0.05508353
231	0xbc5bf8b8	-0.013425998
232	0xbd8a0e7c	-0.06741044
233	0x3c752e78	0.014964692
234	0xbbbd3060	-0.005773589
235	0x3d98c5a6	0.074595734
236	0xbd34a973	-0.044106912
237	0xbda4f49f	-0.0805447
238	0xbce06dba	-0.027396072
239	0xbcaa0964	-0.02075643
240	0x3d86aa94	0.06575504
241	0xbd11c66d	-0.035589624
242	0xbc59e540	-0.013299286
243	0xbda6ca0f	-0.08144008
244	0x3d906dbc	0.0705218
245	0xb9c97f00	-0.0003843233
246	0x3d5c44b0	0.053776443
247	0x3c16aa50	0.009195879
248	0x3c7fa358	0.015602909
249	0xbd4a0853	-0.049324345
250	0x3d0f8e34	0.035047725
251	0x3d35672c	0.044287845
252	0xbd87b7b2	-0.06626834
253	0x3d963ea8	0.073361695
254	0x3d666fac	0.056258842
255	0xbcbaea40	-0.022816777

conv2.bias f4 [16]
0	0x3cc550e8	0.02408643
1	0xbd1abcea	-0.03777782
2	0xbca67300	-0.020318508
3	0xbd97758a	-0.07395466
4	0xbd548082	-0.051880367
5	0x3d5cbd80	0.05389166
6	0x3d91fb82	0.071280494
7	0xbce88bfe	-0.028387066
8	0x3cd97a24	0.026547499
9	0x3d469710	0.04848391
10	0xbbed83a0	-0.007248357
11	0x3ced6298	0.028977677
12	0xbc0a68d0	-0.008447841
13	0xbd552d56	-0.05204519
14	0x3d99e8b8	0.07515091
15	0xbd97a220	-0.0740397

conv3.weight f4 [120, 16, 5, 5]
0	0x3bf963b0	0.0076107606
1	0xbd39e0d8	-0.045380443
2	0xbd24a88e	-0.04019981
3	0x3d1e00d9	0.038575027
4	0x3cd317c2	0.025768165
5	0x3d03a5ab	0.032140415
6	0x3c8be8e2	0.01707882
7	0x3cf891fa	0.030343045
8	0xbd3cbad2	-0.046076603
9	0xbd2f71cd	-0.04283314
10	0x3c82c24a	0.015961785
11	0x3c9cf02e	0.019157495
12	0xbc1b6648	-0.009484835
13	0xbb80cf30	-0.0039309487
14	0x3bb44a00	0.0055019855
15	0x3d404c93	0.046948027
16	0xbc22d2cc	-0.009937953
17	0xbd4ada0d	-0.049524356
18	0xbccfe0ca	-0.025375742
19	0xbc66c368	-0.014084674
20	0x3aec40c0	0.0018024668
21	0x3d207513	0.03917415
22	0x3bc35b28	0.0059617944
23	0x3d1fe025	0.03903212
24	0xbcd6baa7	-0.02621205
25	0xbcdbffe3	-0.026855415
26	0x3d164a35	0.036691863
27	0x3b972f18	0.0046137683
28	0x3cd92b5a	0.02650993
29	0x3cdc04fa	0.026857842
30	0x3d258339	0.040408347
31	0xbcdab9c3	-0.026699906
32	0x3d3c2b39	0.045939658
33	0xbcb094ea	-0.021555383
34	0x3d36eeb7	0.04466125
35	0x3c86ac4a	0.016439576
36	0xbd0c247d	-0.034214485
37	0x3c6b08c4	0.014345352
38	0x3d2adf49	0.041716848
39	0x3bc52528	0.0060163923
40	0x3cef7aea	0.029233415
41	0x3d0778f7	0.033074345
42	0xbca5f49d	-0.020258242
43	0xbd264b68	-0.040599257
44	0x3cc9eb92	0.024648461
45	0x3ac3dbc0	0.001494281
46	0x3ccd6562	0.025072757
47	0x3cd82d02	0.026388649
48	0x3cdbe92e	0.026844587
49	0x3c44a4ac	0.012002151
50	0xbd4661f7	-0.04843327
51	0x3d2d0b0f	0.042246874
52	0x3d3b160b	0.04567532
53	0x3ce7ceee	0.028296914
54	0x3d0e0f43	0.034682523
55	0xbbb0d518	-0.0053964965
56	0x3d3e00ef	0.04638761
57	0x3d0b4b1f	0.034007188
58	0xbc8b310c	-0.01699116
59	0x3c08d0d8	0.0083505735
60	0x3d0b5a4b	0.034021657
61	0x3d355475	0.044269998
62	0x3cfd79e2	0.030941907
63	0xbd289be8	-0.04116431
64	0x3ccd35d6	0.025050085
65	0xbd018c48	-0.031627923
66	0xbcabc78d	-0.020969177
67	0xbcd12893	-0.025532043
68	0xbd216a1b	-0.03940783
69	0x3d3f30c1	0.046677355
70	0xbc9b5037	-0.018959148
71	0x3cd75756	0.026286762
72	0xbd2b49a2	-0.04181827
73	0xbca783e3	-0.02044863
74	0xbd050b8a	-0.032481708
75	0xbc964ff0	-0.018348664
76	0xbd2af926	-0.041741513
77	0x3d319fad	0.04336517
78	0x3c8932a2	0.016747776
79	0x3ac75fc0	0.0015211031
80	0x39996f00	0.00029265136
81	0x3c10d3e0	0.008839577
82	0xbd01e5b5	-0.031713206
83	0x3cdf911a	0.02729087
84	0xbbd35e40	-0.0064504445
85	0xbc81f5ec	-0.015864335
86	0x3cd141de	0.025544103
87	0xbd1e01fd	-0.038576115
88	0x3b0baf30	0.0021314137
89	0x3d326c2f	0.043560203
90	0xbd282358	-0.04104933
91	0x3d339d43	0.04385115
92	0x3c2d72e8	0.010586478
93	0x3d080c95	0.033215124
94	0x3c1856ac	0.009298008
95	0x3b60fd20	0.0034330562
96	0xbba0d180	-0.004907787
97	0x3b9f0d00	0.0048538446
98	0xbccbc687	-0.024874939
99	0x3d090e6f	0.03346103
100	0xbd229135	-0.03968926
101	0xbd386ce2	-0.045025714
102	0xbced2793	-0.028949535
103	0xbd439608	-0.047750503
104	0xbc364118	-0.011123918
105	0xbce88460	-0.028383434
106	0x3c9938ca	0.018703837
107	0xbc8f90b0	-0.017525047
108	0xbd08fda4	-0.033445016
109	0x3c316298	0.010826729
110	0x3d0a4ccf	0.033764657
111	0xbc6b5040	-0.014362395
112	0xbc9174e0	-0.017755926
113	0xbd487f1a	-0.04894934
114	0x3b4c6e00	0.0031193495
115	0xbc6aa6c0	-0.014321983
116	0x3cc40952	0.023930226
117	0x3d08e139	0.033417914
118	0x3d189ea9	0.037260685
119	0xbd001775	-0.03127237
120	0xbd2290f3	-0.039689016
121	0xbc94ed06	-0.018179428
122	0xbc8b2254	-0.016984142
123	0x3b92aed8	0.0044764094
124	0xbd44ce52	-0.048048325
125	0xbbfce7c0	-0.0077180564
126	0x3cc6dbc2	0.02427471
127	0x3d0bde73	0.03414769
128	0x3d2befb1	0.041976634
129	0xbd3e11a3	-0.04640354
130	0xbd1232da	-0.035693027
131	0xbd1dc1b2	-0.0385148
132	0xbc3ccba0	-0.011523157
133	0x3bab9df0	0.0052373335
134	0x3d26d525	0.040730614
135	0x3bf99f98	0.007617902
136	0x3c6e1964	0.014532421
137	0xbca6e43d	-0.020372504
138	0xbd4b66e0	-0.049658656
139	0x3d2eba79	0.042658303
140	0x3c966e86	0.018363249
141	0x3bbf18d0	0.0058318153
142	0x3c0a42a8	0.008438744
143	0x3cbeb002	0.023277286
144	0x3d06dd21	0.03292573
145	0xbc351e98	-0.011054657
146	0xbd13e6b2	-0.03610868
147	0xbd2abc72	-0.04168362
148	0x3b215830	0.0024619214
149	0x3bff8ca8	0.00779875
150	0x3bebfb98	0.007201623
151	0xbc85182c	-0.016246878
152	0xbc32c114	-0.010910291
153	0x3d429ebb	0.04751466
154	0xbd07c084	-0.03314258
155	0x3d0dac15	0.03458794
156	0xbcc38470	-0.023866862
157	0xbcca948a	-0.024729032
158	0x3d264167	0.040589716
159	0x3d0e41db	0.034730773
160	0x3cfdd116	0.030983489
161	0x3cc6e12e	0.024277296
162	0xbb6102b0	-0.0034333877
163	0xbc9a32fd	-0.018823141
164	0xbc468ba0	-0.01211825
165	0x3c823606	0.015894901
166	0xbd47c28d	-0.048769522
167	0xbc89f59a	-0.016840745
168	0xbd03f670	-0.032217443
169	0x3cebfe56	0.0288078
170	0xbc9d5eca	-0.019210238
171	0x3b08b1d0	0.0020857938
172	0x3ce2ce5e	0.027686294
173	0xbcf057c7	-0.02933873
174	0x3ca36cea	0.019949395
175	0xbd036d8d	-0.032086898
176	0x3bca33d8	0.006170731
177	0x3cbee6d2	0.023303423
178	0xbcb20fb3	-0.021736002
179	0x3c0df06c	0.008663278
180	0x3cae57be	0.021282073
181	0xbd30fce2	-0.043209918
182	0xbd11456a	-0.03546659
183	0x3cb580c6	0.02215613
184	0xbd3d5302	-0.04622174
185	0x3b1f1aa0	0.0024277344
186	0x3d49375b	0.049125057
187	0xbd3c8bc8	-0.046031743
188	0x3c90d916	0.01768164
189	0xbabc9a40	-0.0014389232
190	0xbc897a04	-0.016781814
191	0xbd270858	-0.04077944
192	0x3c486e40	0.012233317
193	0xbd25d35e	-0.04048478
194	0x3d38028d	0.044924308
195	0xbc84d880	-0.016216516
196	0xbcf6845d	-0.030092413
197	0xbca07c53	-0.019590532
198	0xbc59764c	-0.013272833
199	0xbca5ce3a	-0.020239938
200	0xbcc53883	-0.024074798
201	0x3d3ff5e9	0.046865378
202	0xbd447223	-0.04796041
203	0xbcc75b10	-0.024335414
204	0x3cf3d7e2	0.029766027
205	0xbd0e0b75	-0.034678895
206	0x3d3b00c9	0.045655046
207	0xbb83c5c0	-0.0040213764
208	0xbccc33cd	-0.024927044
209	0xbd01fb5a	-0.03173385
210	0x3c1eaf88	0.009685405
211	0xbc908be0	-0.017644823
212	0x3d1bfe09	0.038084064
213	0x3d2a0c2b	0.04151551
214	0xbc38bdf4	-0.011275757
215	0x3ccb2832	0.02479944
216	0xbbf1ae50	-0.007375516
217	0xbcdb3af7	-0.026761515
218	0xbb640d00	-0.0034797788
219	0xbcb33c5a	-0.021879364
220	0x3b257500	0.002524674
221	0x3c3489a0	0.0110191405
222	0x3d06a999	0.032876585
223	0x3d127ded	0.035764623
224	0x3ccfb9c2	0.02535713
225	0xbce1c957	-0.027561827
226	0x3cead302	0.02866507
227	0xbd075626	-0.033041142
228	0xbc4a1060	-0.012333006
229	0xbc3c2200	-0.011482716
230	0xbc104c18	-0.008807205
231	0x3d489de3	0.048978698
232	0x3d3b0637	0.045660224
233	0xbcd4109d	-0.025886828
234	0x3d1ef88b	0.038811248
235	0x3c9bc4fa	0.019014824
236	0xbc4e0bac	-0.012576025
237	0xbcc266a0	-0.023730576
238	0x3d421069	0.04737893
239	0xbd36ecdd	-0.044659484
240	0xbd3fcd2a	-0.04682652
241	0xbc88aae4	-0.01668305
242	0xbd36faa8	-0.04467264
243	0x3bab9f28	0.0052374788
244	0xbd125763	-0.03572787
245	0xbd29f4cb	-0.04149322
246	0xbc79a5c0	-0.015237272
247	0x3c84b7d6	0.016200941
248	0x3d0679bd	0.032830942
249	0xbd469773	-0.048484277
250	0xbcf5a42d	-0.029985512
251	0xbcf9f793	-0.03051356
252	0xbc9b42ad	-0.018952692
253	0xbd315a7b	-0.04329918
254	0xbca1871a	-0.019717742
255	0x3c9417ee	0.018077817

conv3.bias f4 [120]
0	0x3d49c83d	0.049263228
1	0x3b600130	0.0034180395
2	0xbd4745e2	-0.04865063
3	0x3d3604a1	0.04443801
4	0x3d311b39	0.043238852
5	0x3d29fc53	0.0415004
6	0x3d1fb833	0.038994025
7	0xbccf294a	-0.025288243
8	0x3c9c18ce	0.019054797
9	0xbd11c633	-0.035589408
10	0x3cd9cc76	0.026586752
11	0xbd430e2f	-0.04762095
12	0xbd0dd3c5	-0.034625787
13	0x3d2641a1	0.040589932
14	0x3cd2fcb2	0.02575526
15	0x3ba78780	0.0051125884
16	0x3aac4940	0.0013144389
17	0xbc4f6dec	-0.012660485
18	0xbcb78eed	-0.02240702
19	0x3b89d5b0	0.0042063817
20	0xbb1efa50	-0.0024258085
21	0xbb72c750	-0.003704507
22	0x3cb5f6a6	0.022212338
23	0x3c27494c	0.010210346
24	0x3c3521b8	0.011055402
25	0xbcfa6350	-0.030564934
26	0xbceb193d	-0.028698558
27	0x3d494c69	0.049145136
28	0xbd07638a	-0.033053912
29	0xbc22c718	-0.009935163
30	0x3baae400	0.005215168
31	0xbaff0540	-0.0019456521
32	0xbc93b014	-0.018028297
33	0xbb8d9b30	-0.0043214783
34	0x3d022405	0.031772632
35	0x3c6b9c84	0.014380578
36	0xbcfa70cd	-0.030571366
37	0x3c44cda8	0.012011923
38	0xbc3ad488	-0.01140321
39	0x3ac39a40	0.001492329
40	0xbc74b2f8	-0.014935248
41	0xbd2c2366	-0.042025946
42	0xbd3ad55f	-0.045613643
43	0xbd060112	-0.032715864
44	0xbcf5b243	-0.029992228
45	0xbb6c23d0	-0.0036032088
46	0x3d490331	0.04907531
47	0x3cf7d13e	0.030251142
48	0x3cd4f892	0.025997434
49	0xbd458b93	-0.04822881
50	0x3d097b39	0.03356478
51	0x3d4587eb	0.048225325
52	0xbc6fdd4c	-0.014640164
53	0xbd3d4c53	-0.046215367
54	0x3c69d62c	0.014272254
55	0x3d125e73	0.035734605
56	0x3d28db41	0.04122472
57	0xbd1cb9cd	-0.03826313
58	0xbd1ce7ad	-0.03830688
59	0x3d1db0ad	0.03849857
60	0x3d2488d1	0.04016954
61	0x3c0f024c	0.008728575
62	0x3cd43d6e	0.025908198
63	0xbd38dced	-0.045132566
64	0xbcd9ac70	-0.026571482
65	0x3d3ecec9	0.046583924
66	0xbc092f4c	-0.008373093
67	0xbd43de65	-0.047819514
68	0x3ca29592	0.019846711
69	0x3d13f029	0.036117706
70	0xbc2f78c8	-0.010709949
71	0x3d37c03f	0.044861075
72	0xbd46e6cb	-0.048559945
73	0x3d0e9151	0.034806553
74	0xbd178b1d	-0.036997903
75	0xbc88897a	-0.016667116
76	0xbc52ec14	-0.012873668
77	0x3cc824c2	0.02443159
78	0x3bc5a168	0.006031204
79	0xbbaf56c0	-0.0053509176
80	0x3cee1c72	0.029066298
81	0xbd222c2d	-0.03959291
82	0xbd482c02	-0.048870094
83	0xbc81282c	-0.015766226
84	0x3c8373b6	0.016046386
85	0xbc42c1c0	-0.011887014
86	0x3d339f39	0.04385302
87	0xbc8c55c4	-0.01713074
88	0xbaaffe40	-0.0013427213
89	0xbcefa9ad	-0.029255712
90	0x3d0b285d	0.03397404
91	0xbc99f8ea	-0.01879545
92	0xbb9a0210	-0.004699953
93	0x3af35600	0.0018565059
94	0xbc8a77f4	-0.016902901
95	0x3d1ad3d1	0.03779966
96	0x3c491740	0.01227361
97	0xbc95f2fc	-0.01830434
98	0x3d0f0211	0.03491408
99	0x3ca1dc0a	0.019758243
100	0x3c17d0b4	0.009266067
101	0x3c2e5af8	0.010641806
102	0x3d306d01	0.043072704
103	0x3d014edb	0.031569343
104	0xbc621238	-0.013798289
105	0x3d1de361	0.038546924
106	0xbb0c9e60	-0.0021456704
107	0xbd43bcf5	-0.047787625
108	0xbd04ca1a	-0.0324193
109	0x3b8d7368	0.004316736
110	0xbcf6230d	-0.03004601
111	0x3d01fd15	0.0317355
112	0xbd37aa30	-0.044840038
113	0xbd359d9a	-0.044339754
114	0xbd00f66a	-0.031485
115	0x3cb621c2	0.022232894
116	0xbd2bf05d	-0.041977275
117	0x3d1d02bf	0.038332697
118	0xbcaa1f40	-0.020766854
119	0x3cc18452	0.023622666

fc1.weight f4 [84, 120]
0	0xbd2b910a	-0.041886367
1	0x3d6ce50c	0.057835624
2	0xbcc4c650	-0.024020344
3	0x3b342bc0	0.0027491897
4	0xbdb8ed8f	-0.09029686
5	0x3d8d0652	0.06885971
6	0x3d287f38	0.04113695
7	0x3d9bb294	0.076024204
8	0xbda57cab	-0.08080419
9	0xbcf465de	-0.02983373
10	0x3c7739a8	0.01508943
11	0x3d0e8d0c	0.03480248
12	0xbdb918dc	-0.09037945
13	0x3c444e08	0.011981495
14	0xbc7bb350	-0.015362576
15	0xbd1f615c	-0.03891121
16	0xbceb1ca4	-0.02870018
17	0x3d350ae8	0.044199854
18	0x3c870a60	0.01648444
19	0x3d8de792	0.06928934
20	0xbd65b8e7	-0.05608454
21	0x3d9a7164	0.07541159
22	0x3bfa11a0	0.0076314956
23	0x3c9815ac	0.018565021
24	0xbc8077d8	-0.015682146
25	0xbcd2c9b8	-0.025730953
26	0x3d3c8dc4	0.046033636
27	0xbd913875	-0.070908464
28	0x3ccde4d8	0.025133535
29	0xbdad02fb	-0.08447834
30	0x3d92633e	0.07147835
31	0xbb640160	-0.0034790859
32	0x3db6e5b8	0.08930534
33	0xbca938f4	-0.02065704
34	0x3cc91aa8	0.024548844
35	0x3dae3332	0.085058585
36	0xbcf4c8ea	-0.02988096
37	0xbda9d360	-0.0829227
38	0x3d2f73ac	0.042834923
39	0x3bb10130	0.005401753
40	0xbcd85928	-0.0264097
41	0xbd820460	-0.06348491
42	0x3d11c788	0.03559068
43	0x3db87a2e	0.09007679
44	0xbd1eb01a	-0.038742162
45	0x3d0bcfa8	0.034133583
46	0x3d398660	0.045294166
47	0xbcf135c8	-0.02944459
48	0x3d2c0ac4	0.042002454
49	0x3d0a83bc	0.033817038
50	0x3d21ab50	0.039470017
51	0xbd113f58	-0.0354608
52	0xbc9d1588	-0.019175306
53	0xbd40c928	-0.047066838
54	0xbc9b2274	-0.018937327
55	0xbd1e1c4c	-0.038601205
56	0xbd72ebf6	-0.05930706
57	0x3c078d40	0.008273423
58	0xbcb14ff4	-0.02164457
59	0xbbfaf780	-0.007658899
60	0xbd6a85ec	-0.057256624
61	0x3cdeb05c	0.027183704
62	0x3d83b022	0.06430079
63	0xbcca8e3c	-0.024726026
64	0xbc5252a0	-0.012837082
65	0x3b2072c0	0.0024482459
66	0xbd95ad68	-0.07308465
67	0x3c0c4ba0	0.008562952
68	0x3d8be2d8	0.068303764
69	0xbd4166d5	-0.04721721
70	0xbd317a74	-0.04332967
71	0x3d7ca59c	0.061681375
72	0xbd3ef0aa	-0.046616234
73	0x3c37f730	0.011228368
74	0x3c8f1d30	0.017469972
75	0x3db82d2a	0.08992989
76	0x3bfdfbc0	0.007750958
77	0x3d6aaea4	0.057295457
78	0x3cb297f8	0.02180098
79	0xbc3b2d18	-0.011424325
80	0xbca5debc	-0.02024781
81	0xbd19ac46	-0.03751781
82	0xbd76d34e	-0.06026011
83	0xbd0f29bf	-0.03495192
84	0x3d8d6ce0	0.06905532
85	0xbbe0fce0	-0.0068660825
86	0x3cb31cfc	0.021864407
87	0xbd4f34bd	-0.050587405
88	0xbd6c9c40	-0.0577662
89	0x3db2b6b2	0.087262526
90	0x3d6ec5dc	0.058294162
91	0xbcd57188	-0.026055112
92	0x3d0a2c6c	0.03373377
93	0xbd95a63e	-0.07307099
94	0x3d7f48b8	0.06232521
95	0x3da3803e	0.07983445
96	0x3d2fac64	0.042889014
97	0x3b238ca0	0.0024955645
98	0xbd8dd7ef	-0.06925952
99	0xbd4a8211	-0.049440447
100	0x3c26a840	0.01017195
101	0x3d5adfa4	0.053435937
102	0x3c769030	0.015049025
103	0xbced71c0	-0.028984904
104	0xbd53e099	-0.051727865
105	0xbd30418b	-0.043031257
106	0xbda05e78	-0.078305185
107	0xbaffc600	-0.0019513965
108	0x3db81d36	0.089899465
109	0x3d68676c	0.056739256
110	0xbbfeb6c0	-0.0077732503
111	0x3d44ce94	0.04804857
112	0x3d254e18	0.04035768
113	0xbd999635	-0.07499353
114	0xbd69ed6d	-0.057111192
115	0x3da28d58	0.079371154
116	0x3bcee950	0.006314434
117	0x3a643580	0.0008705482
118	0x3d9b90d0	0.0759598
119	0xbd68314b	-0.056687634
120	0xbca51d48	-0.020155564
121	0xbd957cd8	-0.07299203
122	0x3d984f5e	0.07437013
123	0xbd4fd550	-0.05074054
124	0xbd9abf1a	-0.07555981
125	0x3cb1efec	0.021720849
126	0x3ced61b0	0.028977245
127	0xbd9ba99c	-0.0760071
128	0x3ce22e50	0.027609974
129	0x3db54446	0.08850913
130	0x3c87f120	0.01659447
131	0x3be1ba60	0.0068886727
132	0xbdb28dd5	-0.087184586
133	0x3cbbc148	0.022919312
134	0xba602a00	-0.00085511804
135	0xbcb5195c	-0.022106819
136	0xbd1a6871	-0.03769726
137	0x3d82ffe2	0.06396462
138	0xbd4eb8f4	-0.050469354
139	0x3d0c2764	0.034217253
140	0xbc653440	-0.013989508
141	0xbd977d14	-0.07396904
142	0xbd682bbf	-0.056682345
143	0x3d3d3ea4	0.046202317
144	0xbcbec028	-0.023284987
145	0xbc04b928	-0.008100785
146	0x3da0b896	0.07847707
147	0xbd12e55a	-0.035863258
148	0x3a5b6680	0.00083694607
149	0x3d84d6b4	0.06486264
150	0xbd14474e	-0.036200814
151	0xbc42ccd0	-0.011889651
152	0xbb3e71e0	-0.0029059574
153	0xbd7cf340	-0.06175542
154	0xbcefe67c	-0.029284708
155	0x3d59d598	0.053182214
156	0x3da86f40	0.08224344
157	0xbc88fb48	-0.016721383
158	0xbd1fe59f	-0.039037343
159	0xbdac5c14	-0.08416
160	0x3d375518	0.044758886
161	0xb9798000	-0.00023794174
162	0xbb7665e0	-0.0037597343
163	0xbdbaee00	-0.09127426
164	0x3c9d1b9c	0.019178204
165	0x3d89a216	0.067203686
166	0x3d0e9fac	0.034820244
167	0x3cfda8bc	0.030964248
168	0x3c87a0a8	0.016556099
169	0xbd941858	-0.07231206
170	0x3cc59f38	0.024123773
171	0xbcba2b4c	-0.022725724
172	0x3cf1a670	0.029498309
173	0x3d6cbf4c	0.057799622
174	0x3db9ba08	0.09068686
175	0xb9df9400	-0.00042644143
176	0x3d0f95cc	0.035054967
177	0x3cb7e4b4	0.022447921
178	0x3d0b44e0	0.03400123
179	0x3d9346c6	0.07191233
180	0x3d92ca8e	0.071675405
181	0x3db6b04c	0.08920345
182	0x3d8534ee	0.06504236
183	0xbd2257ec	-0.03963463
184	0xbd9d4acc	-0.07680282
185	0x3d12d380	0.035846233
186	0x3cb04d88	0.021521345
187	0xbd6e42c5	-0.058169145
188	0xbc74cf18	-0.014941953
189	0x3ab31dc0	0.0013665482
190	0xbda80153	-0.082033776
191	0xbd88d040	-0.066803455
192	0xbd96b7c3	-0.073592685
193	0x3d94d2e4	0.07266787
194	0x3d469478	0.048481435
195	0x3d97769e	0.07395671
196	0x3d277fd0	0.040893376
197	0xbc82d0f0	-0.01596877
198	0x3db822c6	0.089910075
199	0xbd2fef17	-0.042952623
200	0x3cc8f0d8	0.024528906
201	0xbd19f1f6	-0.037584268
202	0xbd52925d	-0.051409114
203	0x3db791ca	0.08963354
204	0x3b4cba40	0.0031238943
205	0xbda75bd5	-0.081718124
206	0x3d3da020	0.046295285
207	0x3dae0014	0.08496109
208	0xbd01b26d	-0.0316643
209	0xbbcdc970	-0.0062801167
210	0xbd446605	-0.047948856
211	0x3d1ea334	0.03872986
212	0xbd5b1329	-0.05348507
213	0x3d0b68d8	0.034035534
214	0xbd88f38e	-0.06687079
215	0x3ce5c96c	0.028050147
216	0x3cd3fa74	0.025876261
217	0xbd92c978	-0.07167333
218	0x3d06f30e	0.03294664
219	0xbd98b642	-0.07456638
220	0x3d94513a	0.07242055
221	0x3cb7fc30	0.02245912
222	0x3da71862	0.081589475
223	0xbbf66c30	-0.007520221
224	0xbd6abbeb	-0.05730812
225	0x3d125704	0.035727516
226	0xbd83b851	-0.0643164
227	0x3d167d8c	0.036740825
228	0x3db132fc	0.086523026
229	0xbc984274	-0.018586375
230	0x3c6afb20	0.014342099
231	0x3d921a7e	0.07133959
232	0xbd4c9347	-0.049945142
233	0xbce78cf4	-0.028265454
234	0x3d8d7600	0.06907272
235	0xbd056022	-0.032562383
236	0xbc990e4c	-0.018683575
237	0x3da65524	0.08121708
238	0xbd0806bd	-0.03320955
239	0xbc469740	-0.012121022
240	0x3baedea0	0.0053365976
241	0x3bcdc690	0.006279774
242	0xbd953f3e	-0.07287453
243	0x3c6b70d0	0.014370158
244	0x3d9957b2	0.0748743
245	0x3ce8f300	0.028436184
246	0xbd8e8adb	-0.06960078
247	0xbc0b5738	-0.008504681
248	0xbce5ee48	-0.028067723
249	0x3cec5208	0.02884771
250	0xbd303602	-0.043020256
251	0x3dbaaae0	0.09114623
252	0x3d781034	0.060562328
253	0x3d7df9a8	0.06200567
254	0x3ccfe94c	0.0253798
255	0xbd0027c5	-0.031287927

fc1.bias f4 [84]
0	0x3cdea9f8	0.027180657
1	0xbdad5f83	-0.08465483
2	0xba8c41c0	-0.0010700747
3	0xbb4b9a80	-0.003106743
4	0xbc746d30	-0.01491861
5	0xbc7280c0	-0.014801204
6	0x3c3f4590	0.0116743
7	0x3da3d88e	0.08000289
8	0xbd9e7550	-0.07737219
9	0x3d72af88	0.05924943
10	0xbd8549ce	-0.06508218
11	0xbd062403	-0.032749187
12	0xbdaf331b	-0.085546695
13	0xbd7ea982	-0.062173374
14	0xbc363940	-0.011122048
15	0x3c57ef08	0.013179548
16	0xbdb0e77a	-0.08637901
17	0x3d7b5934	0.061364368
18	0xbb982a00	-0.0046436787
19	0xbcf7eff6	-0.03026579
20	0xbd11d38f	-0.03560215
21	0xbd7e6398	-0.0621067
22	0x3d811e70	0.063046336
23	0x3bd6b140	0.0065518916
24	0x3d1cf590	0.038320124
25	0x3d4f427c	0.050600514
26	0xbb86a0e0	-0.0041085333
27	0x3cd27ecc	0.025695227
28	0xbd7d009d	-0.061768163
29	0xbd08f4b4	-0.033436492
30	0x3d8fbb3c	0.07018134
31	0x3c2ad680	0.010427117
32	0xbd8f0270	-0.06982887
33	0x3d9318ea	0.07182486
34	0xbca31b30	-0.019910425
35	0xbc982974	-0.018574454
36	0x3d80a826	0.06282072
37	0x3d51767c	0.051138386
38	0xbdaedfe3	-0.08538797
39	0xbd7ba9cf	-0.06144124
40	0x3d0c0db8	0.03419277
41	0xbaa952c0	-0.0012918338
42	0x3da2c93a	0.07948537
43	0xbd817919	-0.06321926
44	0xbdb70cac	-0.08937964
45	0x3d4c6590	0.049901545
46	0xbd897b16	-0.0671293
47	0x3dabff94	0.08398357
48	0x3cd19f8c	0.025588773
49	0x3ccf2c68	0.02528973
50	0x3d0a350c	0.033741996
51	0xbd5240a6	-0.051331185
52	0xbd6bb502	-0.05754567
53	0xbdb00ae1	-0.08595825
54	0x3d2b4558	0.04181418
55	0x3bd1d2e0	0.006403312
56	0x3d826cc4	0.06368402
57	0xbd506ed8	-0.05088696
58	0xb9791000	-0.00023752451
59	0xbb0750e0	-0.002064757
60	0xbd9353b0	-0.071936965
61	0xbdba9a1b	-0.091114245
62	0xbdaa4422	-0.083137766
63	0x3d522f9c	0.051314935
64	0xbd877e97	-0.06615942
65	0xbc702ce0	-0.0146591365
66	0x3d24104c	0.040054604
67	0xbd7afeb0	-0.061278045
68	0xbdb68b6d	-0.08913312
69	0xbdaf0790	-0.08546364
70	0x3d34187c	0.043968663
71	0x3d9a4e56	0.07534473
72	0x3d34347c	0.043995366
73	0xbd1f6bd3	-0.03892119
74	0xbd31fc84	-0.04345371
75	0xbbeac020	-0.0071640164
76	0xbd6cb3dc	-0.057788715
77	0x3cc32a6c	0.02382394
78	0xbd3e99d4	-0.04653342
79	0x3d6adb0c	0.057337806
80	0xbca862cc	-0.020554923
81	0x3dabc70e	0.08387576
82	0x3c91f04c	0.017814778
83	0x3db0449e	0.08606838

fc2.weight f4 [10, 84]
0	0x3c81abb0	0.015828937
1	0x3d2969d6	0.0413607
2	0x3dd44853	0.10365357
3	0x3da83859	0.082138725
4	0x3d99105b	0.07473823
5	0x3c460b80	0.012087703
6	0xbd3cf01a	-0.046127416
7	0xbd6f5a54	-0.058435753
8	0x3d5a62ba	0.05331681
9	0xbd167f44	-0.036742464
10	0x3d961b9f	0.07329487
11	0x3d51966a	0.051168837
12	0x3cbd3b04	0.02309943
13	0x3d526b9e	0.051372163
14	0xbd4bcd8a	-0.049756564
15	0xbd8e5920	-0.06950593
16	0x3d9f4abf	0.077779286
17	0xbd2b06ae	-0.041754417
18	0xbdd8a64b	-0.10578593
19	0x3ce65784	0.028117903
20	0x3d7ff3c2	0.062488325
21	0x3d4050f2	0.046952195
22	0x3c164f58	0.00917419
23	0xbd7f4e0c	-0.06233029
24	0xbdc081d3	-0.09399762
25	0xbd874a5e	-0.06605981
26	0x3bcc7a70	0.0062401816
27	0x3d81c017	0.06335466
28	0xbcfc873c	-0.030826204
29	0x3da53f41	0.08068705
30	0x3d8787d3	0.06617703
31	0x3c01d498	0.007924221
32	0x3ddc2c95	0.10750691
33	0xbd86210b	-0.06549271
34	0xbd26cbbc	-0.04072164
35	0x3d9f422d	0.07776294
36	0x3d3d98d6	0.046288334
37	0xbc43f0a8	-0.011959232
38	0xbda8841c	-0.08228323
39	0xbd8f2287	-0.069890074
40	0x3d7712da	0.060320713
41	0xbdbca24a	-0.09210642
42	0x3dd726e5	0.105054654
43	0x3d723352	0.059130974
44	0x3c7287b0	0.014802858
45	0x3d1a52ee	0.037676744
46	0x3ddd1dc5	0.10796694
47	0x3b959400	0.004564762
48	0x3d592246	0.0530112
49	0x3d9d5d6f	0.07683837
50	0xbd39cc50	-0.045360863
51	0xbd098b18	-0.033579916
52	0xbd80195b	-0.06254836
53	0x3c98a03c	0.018631093
54	0xbcc65024	-0.024208136
55	0x3dc88243	0.097904705
56	0x3da13d7d	0.07873056
57	0xbc8cfc80	-0.017210245
58	0xbd9687ea	-0.07350142
59	0xbcb5a1d8	-0.0221719
60	0x3dcca549	0.09992463
61	0x3d1fab7e	0.038981907
62	0x3dba9057	0.09109562
63	0x3c901ecc	0.01759281
64	0xbdc2a33f	-0.09503793
65	0x3dd823c3	0.10553696
66	0x3c7a5600	0.015279293
67	0x3ddba145	0.10724119
68	0xbdcce39a	-0.10004349
69	0xbdc5c434	-0.096565634
70	0x3dc14b99	0.09438247
71	0xbc8dabc4	-0.017293818
72	0xbd4d0d64	-0.0500616
73	0x3c513218	0.012768291
74	0x3cc7b994	0.024380483
75	0xbdcd2507	-0.10016828
76	0xbd58f770	-0.05297035
77	0x3c8bd7a4	0.017070599
78	0x3d8227bd	0.06355236
79	0xbd6c6bdd	-0.057720054
80	0xbc5b6588	-0.013390906
81	0x3c2a0218	0.010376476
82	0x3c421270	0.011845216
83	0x3da3471f	0.0797255
84	0x3d892381	0.06696225
85	0x3d017e8a	0.031614818
86	0xbc5a41f8	-0.013321392
87	0x3c97453c	0.01846563
88	0x3ccd2414	0.025041617
89	0xbdc1d3f8	-0.09464258
90	0xbd92b70e	-0.07163821
91	0x3d534ca2	0.051586755
92	0x3d0eacc6	0.03483274
93	0x3dda6985	0.106646575
94	0x3d063806	0.032768272
95	0x3d99d599	0.07511444
96	0xbda4f386	-0.08054261
97	0x3d3e18ca	0.04641036
98	0x3dd81499	0.10550804
99	0xbd87c92f	-0.066301696
100	0x3d8cd02b	0.068756424
101	0xbdbafa60	-0.091297865
102	0xbd639b9a	-0.055568315
103	0x3cd1befc	0.025603764
104	0xbd4f4ae2	-0.050608523
105	0xbd990486	-0.07471566
106	0xbb4ddb60	-0.0031411275
107	0x3c872a5c	0.01649969
108	0xbd1d1220	-0.038347363
109	0xbcdda488	-0.027055994
110	0x3b93f790	0.0045155957
111	0x3d9f26f1	0.07771099
112	0x3da32d7f	0.07967662
113	0x3cbe2ffc	0.02321624
114	0x3d647aba	0.055781104
115	0x3c100988	0.008791335
116	0x3dba6c01	0.09102631
117	0xb984ec00	-0.00025352836
118	0xbdb45797	-0.08805769
119	0xbd23eb9a	-0.04001961
120	0x3dd70ff3	0.10501089
121	0xbdd5bb13	-0.10436072
122	0x3d86c4bd	0.065804936
123	0xbd485f64	-0.048919097
124	0xbd6dadff	-0.058027264
125	0x3d4bcf5a	0.049758293
126	0xbd89b6ff	-0.06724357
127	0xbdd4c85b	-0.10389777
128	0xbd8b8642	-0.06812717
129	0x3d68e146	0.056855462
130	0xbdc9c5d3	-0.09852185
131	0xbdc3138c	-0.09525213
132	0x3dbb7a29	0.091541596
133	0xbb34c4a0	-0.0027583018
134	0xbd5319b7	-0.051538195
135	0x3b6f4820	0.0036511496
136	0xbd149eac	-0.036284134
137	0x3d5f0c06	0.054454826
138	0x3bd3b6e0	0.0064610094
139	0x3d4419b2	0.047876067
140	0xbd8a354a	-0.06748445
141	0xbd7b1f47	-0.061309125
142	0x3d811f6b	0.063048206
143	0x3c5e01f0	0.013550267
144	0x3cdc0e34	0.026862241
145	0xbd4b8176	-0.04968401
146	0x3b50ef00	0.0031880736
147	0xbd327540	-0.04356885
148	0xbd7cef9e	-0.061751954
149	0x3dc351c3	0.09537079
150	0xbc0f7008	-0.008754738
151	0xbd955b94	-0.07292858
152	0xbca7428c	-0.020417474
153	0x3d0e4882	0.034737118
154	0x3c882d04	0.016623028
155	0xbcb88150	-0.022522599
156	0x3c055410	0.008137718
157	0xbdce8e43	-0.10085728
158	0x3ce8a7e4	0.028400369
159	0x3c942d4c	0.018088005
160	0x3da4b0d7	0.08041542
161	0x3dd584e9	0.10425741
162	0xbcfadc44	-0.030622609
163	0x3dbfb6a3	0.09361007
164	0xbdd1029d	-0.102055766
165	0x3dcfaecd	0.101407625
166	0xbda3413a	-0.07971425
167	0x3daa289d	0.083085276
168	0xbc9161a4	-0.017746754
169	0x3da41cfd	0.080133416
170	0xbdd50c4a	-0.104027346
171	0xbd894332	-0.067022696
172	0x3c9db55c	0.019251518
173	0xbd658332	-0.05603332
174	0x3af23f40	0.0018481985
175	0x3dc4ed95	0.09615628
176	0xbca3424c	-0.019929074
177	0x3bfb4400	0.0076680183
178	0xbda57ab0	-0.080800414
179	0x3d073d1a	0.033017255
180	0x3c1b9098	0.009494923
181	0x3c80edc0	0.015738368
182	0xbd3a310c	-0.04545693
183	0x3a3d1980	0.00072135776
184	0x3db233f7	0.08701318
185	0x3c8bff7c	0.017089598
186	0x3c617c78	0.013762586
187	0xbcb94364	-0.022615142
188	0x3c314658	0.010819994
189	0x3dd3c85f	0.10340952
190	0xbce149cc	-0.02750101
191	0x3c683b90	0.014174357
192	0xbdc140d4	-0.09436193
193	0x3cf67ec4	0.030089743
194	0xbd457e4e	-0.048216157
195	0xba598180	-0.000829719
196	0x3d2fd206	0.042924903
197	0x3dc8ea95	0.09810368
198	0x3d6152ba	0.055010535
199	0x3c8fcbe4	0.017553277
200	0xbd9df10a	-0.0771199
201	0xbd94737e	-0.07248591
202	0xbdb3a714	-0.08772102
203	0x3db5ee0d	0.08883295
204	0x3ddb50b7	0.107087545
205	0xbdd014f7	-0.10160249
206	0x3d97831b	0.07398053
207	0x3da24935	0.079241194
208	0xbd575ca8	-0.0525786
209	0xbd22bd84	-0.039731517
210	0x3d04769e	0.032339685
211	0x3b789100	0.0037928224
212	0x3dcf49c1	0.10121489
213	0x3db03d7b	0.086054765
214	0x3daa55e7	0.08317166
215	0x3dd0f6b7	0.10203307
216	0xbd2d1fda	-0.042266704
217	0x3d3a59a6	0.04549565
218	0x3d37b1d6	0.044847332
219	0xbce862dc	-0.028367452
220	0x3baa0470	0.0051885173
221	0x3d72e07a	0.05929611
222	0x3cb7891c	0.022404246
223	0x3d76cf36	0.060256205
224	0xbd7f9457	-0.062397327
225	0xbdceaa82	-0.100911155
226	0x3d8dcac7	0.06923442
227	0x3c42a3c0	0.011879861
228	0xbda3273f	-0.0796647
229	0x3cf2df3c	0.029647462
230	0x3ddb6abb	0.107137166
231	0x3d8bea41	0.0683179
232	0x3d85addf	0.06527304
233	0xbbb98060	-0.0056610554
234	0xbd0203b0	-0.031741798
235	0x3d0bfe2a	0.034177937
236	0xbd11fa80	-0.035639286
237	0x3dbf2911	0.09334005
238	0x3d82b345	0.06381849
239	0x3cd900ac	0.026489578
240	0xbc0ac3d8	-0.008469544
241	0x3dc053ad	0.0939096
242	0x3d33a44a	0.04385785
243	0x3d37fe16	0.04492005
244	0xbc6c9200	-0.014439106
245	0xbd9d0100	-0.07666206
246	0x3d0ba6be	0.034094565
247	0x3ccb04a4	0.024782486
248	0xbdb40fb7	-0.0879206
249	0xbdd3ebd3	-0.10347714
250	0x3da3cf99	0.079985805
251	0xbd954dd5	-0.07290236
252	0x3dc41b17	0.095754795
253	0xbdab92dd	-0.08377621
254	0xbd074040	-0.033020258
255	0xbdd0dbac	-0.10198149

fc2.bias f4 [10]
0	0xbdbf8080	-0.09350681
1	0xbc84865c	-0.016177349
2	0xbd365644	-0.044515863
3	0xbcf8b538	-0.03035985
4	0xbd906644	-0.070507556
5	0xbb5c1820	-0.0033583716
6	0xbd5e2611	-0.05423552
7	0x3d6c1e56	0.057646118
8	0x3dc2184f	0.09477293
9	0x3cef7fcc	0.029235743
